node {
  name: "H_out_true"
  op: "Placeholder"
  attr {
    key: "dtype"
    value {
      type: DT_FLOAT
    }
  }
  attr {
    key: "shape"
    value {
      shape {
        dim {
          size: 1
        }
        dim {
          size: 1
        }
        dim {
          size: -1
        }
        dim {
          size: -1
        }
        dim {
          size: 3
        }
      }
    }
  }
}
node {
  name: "is_train"
  op: "Placeholder"
  attr {
    key: "dtype"
    value {
      type: DT_BOOL
    }
  }
  attr {
    key: "shape"
    value {
      shape {
      }
    }
  }
}
node {
  name: "L_in"
  op: "Placeholder"
  attr {
    key: "dtype"
    value {
      type: DT_FLOAT
    }
  }
  attr {
    key: "shape"
    value {
      shape {
        dim {
          size: -1
        }
        dim {
          size: 7
        }
        dim {
          size: -1
        }
        dim {
          size: -1
        }
        dim {
          size: -1
        }
      }
    }
  }
}
node {
  name: "Pad/paddings"
  op: "Const"
  attr {
    key: "dtype"
    value {
      type: DT_INT32
    }
  }
  attr {
    key: "value"
    value {
      tensor {
        dtype: DT_INT32
        tensor_shape {
          dim {
            size: 5
          }
          dim {
            size: 2
          }
        }
        tensor_content: "…"
      }
    }
  }
}
node {
  name: "Pad"
  op: "Pad"
  input: "L_in"
  input: "Pad/paddings"
  attr {
    key: "T"
    value {
      type: DT_FLOAT
    }
  }
  attr {
    key: "Tpaddings"
    value {
      type: DT_INT32
    }
  }
}
node {
  name: "conv1/W/Initializer/random_uniform/shape"
  op: "Const"
  attr {
    key: "_class"
    value {
      list {
        s: "loc:@conv1/W"
      }
    }
  }
  attr {
    key: "dtype"
    value {
      type: DT_INT32
    }
  }
  attr {
    key: "value"
    value {
      tensor {
        dtype: DT_INT32
        tensor_shape {
          dim {
            size: 5
          }
        }
        tensor_content: "\001\000\000\000\003\000\000\000\003\000\000\000\003\000\000\000@\000\000\000"
      }
    }
  }
}
node {
  name: "conv1/W/Initializer/random_uniform/min"
  op: "Const"
  attr {
    key: "_class"
    value {
      list {
        s: "loc:@conv1/W"
      }
    }
  }
  attr {
    key: "dtype"
    value {
      type: DT_FLOAT
    }
  }
  attr {
    key: "value"
    value {
      tensor {
        dtype: DT_FLOAT
        tensor_shape {
        }
        float_val: -0.47140452
      }
    }
  }
}
node {
  name: "conv1/W/Initializer/random_uniform/max"
  op: "Const"
  attr {
    key: "_class"
    value {
      list {
        s: "loc:@conv1/W"
      }
    }
  }
  attr {
    key: "dtype"
    value {
      type: DT_FLOAT
    }
  }
  attr {
    key: "value"
    value {
      tensor {
        dtype: DT_FLOAT
        tensor_shape {
        }
        float_val: 0.47140452
      }
    }
  }
}
node {
  name: "conv1/W/Initializer/random_uniform/RandomUniform"
  op: "RandomUniform"
  input: "conv1/W/Initializer/random_uniform/shape"
  attr {
    key: "T"
    value {
      type: DT_INT32
    }
  }
  attr {
    key: "_class"
    value {
      list {
        s: "loc:@conv1/W"
      }
    }
  }
  attr {
    key: "dtype"
    value {
      type: DT_FLOAT
    }
  }
  attr {
    key: "seed"
    value {
      i: 0
    }
  }
  attr {
    key: "seed2"
    value {
      i: 0
    }
  }
}
node {
  name: "conv1/W/Initializer/random_uniform/sub"
  op: "Sub"
  input: "conv1/W/Initializer/random_uniform/max"
  input: "conv1/W/Initializer/random_uniform/min"
  attr {
    key: "T"
    value {
      type: DT_FLOAT
    }
  }
  attr {
    key: "_class"
    value {
      list {
        s: "loc:@conv1/W"
      }
    }
  }
}
node {
  name: "conv1/W/Initializer/random_uniform/mul"
  op: "Mul"
  input: "conv1/W/Initializer/random_uniform/RandomUniform"
  input: "conv1/W/Initializer/random_uniform/sub"
  attr {
    key: "T"
    value {
      type: DT_FLOAT
    }
  }
  attr {
    key: "_class"
    value {
      list {
        s: "loc:@conv1/W"
      }
    }
  }
}
node {
  name: "conv1/W/Initializer/random_uniform"
  op: "Add"
  input: "conv1/W/Initializer/random_uniform/mul"
  input: "conv1/W/Initializer/random_uniform/min"
  attr {
    key: "T"
    value {
      type: DT_FLOAT
    }
  }
  attr {
    key: "_class"
    value {
      list {
        s: "loc:@conv1/W"
      }
    }
  }
}
node {
  name: "conv1/W"
  op: "VariableV2"
  attr {
    key: "_class"
    value {
      list {
        s: "loc:@conv1/W"
      }
    }
  }
  attr {
    key: "container"
    value {
      s: ""
    }
  }
  attr {
    key: "dtype"
    value {
      type: DT_FLOAT
    }
  }
  attr {
    key: "shape"
    value {
      shape {
        dim {
          size: 1
        }
        dim {
          size: 3
        }
        dim {
          size: 3
        }
        dim {
          size: 3
        }
        dim {
          size: 64
        }
      }
    }
  }
  attr {
    key: "shared_name"
    value {
      s: ""
    }
  }
}
node {
  name: "conv1/W/Assign"
  op: "Assign"
  input: "conv1/W"
  input: "conv1/W/Initializer/random_uniform"
  attr {
    key: "T"
    value {
      type: DT_FLOAT
    }
  }
  attr {
    key: "_class"
    value {
      list {
        s: "loc:@conv1/W"
      }
    }
  }
  attr {
    key: "use_locking"
    value {
      b: true
    }
  }
  attr {
    key: "validate_shape"
    value {
      b: true
    }
  }
}
node {
  name: "conv1/W/read"
  op: "Identity"
  input: "conv1/W"
  attr {
    key: "T"
    value {
      type: DT_FLOAT
    }
  }
  attr {
    key: "_class"
    value {
      list {
        s: "loc:@conv1/W"
      }
    }
  }
}
node {
  name: "conv1/b/Initializer/Const"
  op: "Const"
  attr {
    key: "_class"
    value {
      list {
        s: "loc:@conv1/b"
      }
    }
  }
  attr {
    key: "dtype"
    value {
      type: DT_FLOAT
    }
  }
  attr {
    key: "value"
    value {
      tensor {
        dtype: DT_FLOAT
        tensor_shape {
          dim {
            size: 64
          }
        }
        float_val: 0.0
      }
    }
  }
}
node {
  name: "conv1/b"
  op: "VariableV2"
  attr {
    key: "_class"
    value {
      list {
        s: "loc:@conv1/b"
      }
    }
  }
  attr {
    key: "container"
    value {
      s: ""
    }
  }
  attr {
    key: "dtype"
    value {
      type: DT_FLOAT
    }
  }
  attr {
    key: "shape"
    value {
      shape {
        dim {
          size: 64
        }
      }
    }
  }
  attr {
    key: "shared_name"
    value {
      s: ""
    }
  }
}
node {
  name: "conv1/b/Assign"
  op: "Assign"
  input: "conv1/b"
  input: "conv1/b/Initializer/Const"
  attr {
    key: "T"
    value {
      type: DT_FLOAT
    }
  }
  attr {
    key: "_class"
    value {
      list {
        s: "loc:@conv1/b"
      }
    }
  }
  attr {
    key: "use_locking"
    value {
      b: true
    }
  }
  attr {
    key: "validate_shape"
    value {
      b: true
    }
  }
}
node {
  name: "conv1/b/read"
  op: "Identity"
  input: "conv1/b"
  attr {
    key: "T"
    value {
      type: DT_FLOAT
    }
  }
  attr {
    key: "_class"
    value {
      list {
        s: "loc:@conv1/b"
      }
    }
  }
}
node {
  name: "Conv3D"
  op: "Conv3D"
  input: "Pad"
  input: "conv1/W/read"
  attr {
    key: "T"
    value {
      type: DT_FLOAT
    }
  }
  attr {
    key: "data_format"
    value {
      s: "NDHWC"
    }
  }
  attr {
    key: "dilations"
    value {
      list {
        i: 1
        i: 1
        i: 1
        i: 1
        i: 1
      }
    }
  }
  attr {
    key: "padding"
    value {
      s: "VALID"
    }
  }
  attr {
    key: "strides"
    value {
      list {
        i: 1
        i: 1
        i: 1
        i: 1
        i: 1
      }
    }
  }
}
node {
  name: "add"
  op: "AddV2"
  input: "Conv3D"
  input: "conv1/b/read"
  attr {
    key: "T"
    value {
      type: DT_FLOAT
    }
  }
}
node {
  name: "Rbn1a/beta/Initializer/Const"
  op: "Const"
  attr {
    key: "_class"
    value {
      list {
        s: "loc:@Rbn1a/beta"
      }
    }
  }
  attr {
    key: "dtype"
    value {
      type: DT_FLOAT
    }
  }
  attr {
    key: "value"
    value {
      tensor {
        dtype: DT_FLOAT
        tensor_shape {
          dim {
            size: 64
          }
        }
        float_val: 0.0
      }
    }
  }
}
node {
  name: "Rbn1a/beta"
  op: "VariableV2"
  attr {
    key: "_class"
    value {
      list {
        s: "loc:@Rbn1a/beta"
      }
    }
  }
  attr {
    key: "container"
    value {
      s: ""
    }
  }
  attr {
    key: "dtype"
    value {
      type: DT_FLOAT
    }
  }
  attr {
    key: "shape"
    value {
      shape {
        dim {
          size: 64
        }
      }
    }
  }
  attr {
    key: "shared_name"
    value {
      s: ""
    }
  }
}
node {
  name: "Rbn1a/beta/Assign"
  op: "Assign"
  input: "Rbn1a/beta"
  input: "Rbn1a/beta/Initializer/Const"
  attr {
    key: "T"
    value {
      type: DT_FLOAT
    }
  }
  attr {
    key: "_class"
    value {
      list {
        s: "loc:@Rbn1a/beta"
      }
    }
  }
  attr {
    key: "use_locking"
    value {
      b: true
    }
  }
  attr {
    key: "validate_shape"
    value {
      b: true
    }
  }
}
node {
  name: "Rbn1a/beta/read"
  op: "Identity"
  input: "Rbn1a/beta"
  attr {
    key: "T"
    value {
      type: DT_FLOAT
    }
  }
  attr {
    key: "_class"
    value {
      list {
        s: "loc:@Rbn1a/beta"
      }
    }
  }
}
node {
  name: "Rbn1a/gamma/Initializer/Const"
  op: "Const"
  attr {
    key: "_class"
    value {
      list {
        s: "loc:@Rbn1a/gamma"
      }
    }
  }
  attr {
    key: "dtype"
    value {
      type: DT_FLOAT
    }
  }
  attr {
    key: "value"
    value {
      tensor {
        dtype: DT_FLOAT
        tensor_shape {
          dim {
            size: 64
          }
        }
        float_val: 1.0
      }
    }
  }
}
node {
  name: "Rbn1a/gamma"
  op: "VariableV2"
  attr {
    key: "_class"
    value {
      list {
        s: "loc:@Rbn1a/gamma"
      }
    }
  }
  attr {
    key: "container"
    value {
      s: ""
    }
  }
  attr {
    key: "dtype"
    value {
      type: DT_FLOAT
    }
  }
  attr {
    key: "shape"
    value {
      shape {
        dim {
          size: 64
        }
      }
    }
  }
  attr {
    key: "shared_name"
    value {
      s: ""
    }
  }
}
node {
  name: "Rbn1a/gamma/Assign"
  op: "Assign"
  input: "Rbn1a/gamma"
  input: "Rbn1a/gamma/Initializer/Const"
  attr {
    key: "T"
    value {
      type: DT_FLOAT
    }
  }
  attr {
    key: "_class"
    value {
      list {
        s: "loc:@Rbn1a/gamma"
      }
    }
  }
  attr {
    key: "use_locking"
    value {
      b: true
    }
  }
  attr {
    key: "validate_shape"
    value {
      b: true
    }
  }
}
node {
  name: "Rbn1a/gamma/read"
  op: "Identity"
  input: "Rbn1a/gamma"
  attr {
    key: "T"
    value {
      type: DT_FLOAT
    }
  }
  attr {
    key: "_class"
    value {
      list {
        s: "loc:@Rbn1a/gamma"
      }
    }
  }
}
node {
  name: "Rbn1a/moving_mean/Initializer/Const"
  op: "Const"
  attr {
    key: "_class"
    value {
      list {
        s: "loc:@Rbn1a/moving_mean"
      }
    }
  }
  attr {
    key: "dtype"
    value {
      type: DT_FLOAT
    }
  }
  attr {
    key: "value"
    value {
      tensor {
        dtype: DT_FLOAT
        tensor_shape {
          dim {
            size: 64
          }
        }
        float_val: 0.0
      }
    }
  }
}
node {
  name: "Rbn1a/moving_mean"
  op: "VariableV2"
  attr {
    key: "_class"
    value {
      list {
        s: "loc:@Rbn1a/moving_mean"
      }
    }
  }
  attr {
    key: "container"
    value {
      s: ""
    }
  }
  attr {
    key: "dtype"
    value {
      type: DT_FLOAT
    }
  }
  attr {
    key: "shape"
    value {
      shape {
        dim {
          size: 64
        }
      }
    }
  }
  attr {
    key: "shared_name"
    value {
      s: ""
    }
  }
}
node {
  name: "Rbn1a/moving_mean/Assign"
  op: "Assign"
  input: "Rbn1a/moving_mean"
  input: "Rbn1a/moving_mean/Initializer/Const"
  attr {
    key: "T"
    value {
      type: DT_FLOAT
    }
  }
  attr {
    key: "_class"
    value {
      list {
        s: "loc:@Rbn1a/moving_mean"
      }
    }
  }
  attr {
    key: "use_locking"
    value {
      b: true
    }
  }
  attr {
    key: "validate_shape"
    value {
      b: true
    }
  }
}
node {
  name: "Rbn1a/moving_mean/read"
  op: "Identity"
  input: "Rbn1a/moving_mean"
  attr {
    key: "T"
    value {
      type: DT_FLOAT
    }
  }
  attr {
    key: "_class"
    value {
      list {
        s: "loc:@Rbn1a/moving_mean"
      }
    }
  }
}
node {
  name: "Rbn1a/moving_variance/Initializer/Const"
  op: "Const"
  attr {
    key: "_class"
    value {
      list {
        s: "loc:@Rbn1a/moving_variance"
      }
    }
  }
  attr {
    key: "dtype"
    value {
      type: DT_FLOAT
    }
  }
  attr {
    key: "value"
    value {
      tensor {
        dtype: DT_FLOAT
        tensor_shape {
          dim {
            size: 64
          }
        }
        float_val: 0.0
      }
    }
  }
}
node {
  name: "Rbn1a/moving_variance"
  op: "VariableV2"
  attr {
    key: "_class"
    value {
      list {
        s: "loc:@Rbn1a/moving_variance"
      }
    }
  }
  attr {
    key: "container"
    value {
      s: ""
    }
  }
  attr {
    key: "dtype"
    value {
      type: DT_FLOAT
    }
  }
  attr {
    key: "shape"
    value {
      shape {
        dim {
          size: 64
        }
      }
    }
  }
  attr {
    key: "shared_name"
    value {
      s: ""
    }
  }
}
node {
  name: "Rbn1a/moving_variance/Assign"
  op: "Assign"
  input: "Rbn1a/moving_variance"
  input: "Rbn1a/moving_variance/Initializer/Const"
  attr {
    key: "T"
    value {
      type: DT_FLOAT
    }
  }
  attr {
    key: "_class"
    value {
      list {
        s: "loc:@Rbn1a/moving_variance"
      }
    }
  }
  attr {
    key: "use_locking"
    value {
      b: true
    }
  }
  attr {
    key: "validate_shape"
    value {
      b: true
    }
  }
}
node {
  name: "Rbn1a/moving_variance/read"
  op: "Identity"
  input: "Rbn1a/moving_variance"
  attr {
    key: "T"
    value {
      type: DT_FLOAT
    }
  }
  attr {
    key: "_class"
    value {
      list {
        s: "loc:@Rbn1a/moving_variance"
      }
    }
  }
}
node {
  name: "Rbn1a/cond/Switch"
  op: "Switch"
  input: "is_train"
  input: "is_train"
  attr {
    key: "T"
    value {
      type: DT_BOOL
    }
  }
}
node {
  name: "Rbn1a/cond/switch_t"
  op: "Identity"
  input: "Rbn1a/cond/Switch:1"
  attr {
    key: "T"
    value {
      type: DT_BOOL
    }
  }
}
node {
  name: "Rbn1a/cond/switch_f"
  op: "Identity"
  input: "Rbn1a/cond/Switch"
  attr {
    key: "T"
    value {
      type: DT_BOOL
    }
  }
}
node {
  name: "Rbn1a/cond/pred_id"
  op: "Identity"
  input: "is_train"
  attr {
    key: "T"
    value {
      type: DT_BOOL
    }
  }
}
node {
  name: "Rbn1a/cond/moments/mean/reduction_indices"
  op: "Const"
  input: "^Rbn1a/cond/switch_t"
  attr {
    key: "dtype"
    value {
      type: DT_INT32
    }
  }
  attr {
    key: "value"
    value {
      tensor {
        dtype: DT_INT32
        tensor_shape {
          dim {
            size: 4
          }
        }
        tensor_content: "\000\000\000\000\001\000\000\000\002\000\000\000\003\000\000\000"
      }
    }
  }
}
node {
  name: "Rbn1a/cond/moments/mean"
  op: "Mean"
  input: "Rbn1a/cond/moments/mean/Switch:1"
  input: "Rbn1a/cond/moments/mean/reduction_indices"
  attr {
    key: "T"
    value {
      type: DT_FLOAT
    }
  }
  attr {
    key: "Tidx"
    value {
      type: DT_INT32
    }
  }
  attr {
    key: "keep_dims"
    value {
      b: true
    }
  }
}
node {
  name: "Rbn1a/cond/moments/mean/Switch"
  op: "Switch"
  input: "add"
  input: "Rbn1a/cond/pred_id"
  attr {
    key: "T"
    value {
      type: DT_FLOAT
    }
  }
  attr {
    key: "_class"
    value {
      list {
        s: "loc:@add"
      }
    }
  }
}
node {
  name: "Rbn1a/cond/moments/StopGradient"
  op: "StopGradient"
  input: "Rbn1a/cond/moments/mean"
  attr {
    key: "T"
    value {
      type: DT_FLOAT
    }
  }
}
node {
  name: "Rbn1a/cond/moments/SquaredDifference"
  op: "SquaredDifference"
  input: "Rbn1a/cond/moments/mean/Switch:1"
  input: "Rbn1a/cond/moments/StopGradient"
  attr {
    key: "T"
    value {
      type: DT_FLOAT
    }
  }
}
node {
  name: "Rbn1a/cond/moments/variance/reduction_indices"
  op: "Const"
  input: "^Rbn1a/cond/switch_t"
  attr {
    key: "dtype"
    value {
      type: DT_INT32
    }
  }
  attr {
    key: "value"
    value {
      tensor {
        dtype: DT_INT32
        tensor_shape {
          dim {
            size: 4
          }
        }
        tensor_content: "\000\000\000\000\001\000\000\000\002\000\000\000\003\000\000\000"
      }
    }
  }
}
node {
  name: "Rbn1a/cond/moments/variance"
  op: "Mean"
  input: "Rbn1a/cond/moments/SquaredDifference"
  input: "Rbn1a/cond/moments/variance/reduction_indices"
  attr {
    key: "T"
    value {
      type: DT_FLOAT
    }
  }
  attr {
    key: "Tidx"
    value {
      type: DT_INT32
    }
  }
  attr {
    key: "keep_dims"
    value {
      b: true
    }
  }
}
node {
  name: "Rbn1a/cond/moments/Squeeze"
  op: "Squeeze"
  input: "Rbn1a/cond/moments/mean"
  attr {
    key: "T"
    value {
      type: DT_FLOAT
    }
  }
  attr {
    key: "squeeze_dims"
    value {
      list {
        i: 0
        i: 1
        i: 2
        i: 3
      }
    }
  }
}
node {
  name: "Rbn1a/cond/moments/Squeeze_1"
  op: "Squeeze"
  input: "Rbn1a/cond/moments/variance"
  attr {
    key: "T"
    value {
      type: DT_FLOAT
    }
  }
  attr {
    key: "squeeze_dims"
    value {
      list {
        i: 0
        i: 1
        i: 2
        i: 3
      }
    }
  }
}
node {
  name: "Rbn1a/cond/AssignMovingAvg/decay"
  op: "Const"
  input: "^Rbn1a/cond/switch_t"
  attr {
    key: "dtype"
    value {
      type: DT_FLOAT
    }
  }
  attr {
    key: "value"
    value {
      tensor {
        dtype: DT_FLOAT
        tensor_shape {
        }
        float_val: 0.001
      }
    }
  }
}
node {
  name: "Rbn1a/Rbn1a/moving_mean/biased/Initializer/zeros"
  op: "Const"
  attr {
    key: "_class"
    value {
      list {
        s: "loc:@Rbn1a/moving_mean"
      }
    }
  }
  attr {
    key: "dtype"
    value {
      type: DT_FLOAT
    }
  }
  attr {
    key: "value"
    value {
      tensor {
        dtype: DT_FLOAT
        tensor_shape {
          dim {
            size: 64
          }
        }
        float_val: 0.0
      }
    }
  }
}
node {
  name: "Rbn1a/Rbn1a/moving_mean/biased"
  op: "VariableV2"
  attr {
    key: "_class"
    value {
      list {
        s: "loc:@Rbn1a/moving_mean"
      }
    }
  }
  attr {
    key: "container"
    value {
      s: ""
    }
  }
  attr {
    key: "dtype"
    value {
      type: DT_FLOAT
    }
  }
  attr {
    key: "shape"
    value {
      shape {
        dim {
          size: 64
        }
      }
    }
  }
  attr {
    key: "shared_name"
    value {
      s: ""
    }
  }
}
node {
  name: "Rbn1a/Rbn1a/moving_mean/biased/Assign"
  op: "Assign"
  input: "Rbn1a/Rbn1a/moving_mean/biased"
  input: "Rbn1a/Rbn1a/moving_mean/biased/Initializer/zeros"
  attr {
    key: "T"
    value {
      type: DT_FLOAT
    }
  }
  attr {
    key: "_class"
    value {
      list {
        s: "loc:@Rbn1a/moving_mean"
      }
    }
  }
  attr {
    key: "use_locking"
    value {
      b: true
    }
  }
  attr {
    key: "validate_shape"
    value {
      b: true
    }
  }
}
node {
  name: "Rbn1a/Rbn1a/moving_mean/biased/read"
  op: "Identity"
  input: "Rbn1a/Rbn1a/moving_mean/biased"
  attr {
    key: "T"
    value {
      type: DT_FLOAT
    }
  }
  attr {
    key: "_class"
    value {
      list {
        s: "loc:@Rbn1a/moving_mean"
      }
    }
  }
}
node {
  name: "Rbn1a/Rbn1a/moving_mean/local_step/Initializer/zeros"
  op: "Const"
  attr {
    key: "_class"
    value {
      list {
        s: "loc:@Rbn1a/moving_mean"
      }
    }
  }
  attr {
    key: "dtype"
    value {
      type: DT_FLOAT
    }
  }
  attr {
    key: "value"
    value {
      tensor {
        dtype: DT_FLOAT
        tensor_shape {
        }
        float_val: 0.0
      }
    }
  }
}
node {
  name: "Rbn1a/Rbn1a/moving_mean/local_step"
  op: "VariableV2"
  attr {
    key: "_class"
    value {
      list {
        s: "loc:@Rbn1a/moving_mean"
      }
    }
  }
  attr {
    key: "container"
    value {
      s: ""
    }
  }
  attr {
    key: "dtype"
    value {
      type: DT_FLOAT
    }
  }
  attr {
    key: "shape"
    value {
      shape {
      }
    }
  }
  attr {
    key: "shared_name"
    value {
      s: ""
    }
  }
}
node {
  name: "Rbn1a/Rbn1a/moving_mean/local_step/Assign"
  op: "Assign"
  input: "Rbn1a/Rbn1a/moving_mean/local_step"
  input: "Rbn1a/Rbn1a/moving_mean/local_step/Initializer/zeros"
  attr {
    key: "T"
    value {
      type: DT_FLOAT
    }
  }
  attr {
    key: "_class"
    value {
      list {
        s: "loc:@Rbn1a/moving_mean"
      }
    }
  }
  attr {
    key: "use_locking"
    value {
      b: true
    }
  }
  attr {
    key: "validate_shape"
    value {
      b: true
    }
  }
}
node {
  name: "Rbn1a/Rbn1a/moving_mean/local_step/read"
  op: "Identity"
  input: "Rbn1a/Rbn1a/moving_mean/local_step"
  attr {
    key: "T"
    value {
      type: DT_FLOAT
    }
  }
  attr {
    key: "_class"
    value {
      list {
        s: "loc:@Rbn1a/moving_mean"
      }
    }
  }
}
node {
  name: "Rbn1a/cond/AssignMovingAvg/sub"
  op: "Sub"
  input: "Rbn1a/cond/AssignMovingAvg/sub/Switch:1"
  input: "Rbn1a/cond/moments/Squeeze"
  attr {
    key: "T"
    value {
      type: DT_FLOAT
    }
  }
}
node {
  name: "Rbn1a/cond/AssignMovingAvg/sub/Switch"
  op: "Switch"
  input: "Rbn1a/Rbn1a/moving_mean/biased/read"
  input: "Rbn1a/cond/pred_id"
  attr {
    key: "T"
    value {
      type: DT_FLOAT
    }
  }
  attr {
    key: "_class"
    value {
      list {
        s: "loc:@Rbn1a/moving_mean"
      }
    }
  }
}
node {
  name: "Rbn1a/cond/AssignMovingAvg/mul"
  op: "Mul"
  input: "Rbn1a/cond/AssignMovingAvg/sub"
  input: "Rbn1a/cond/AssignMovingAvg/decay"
  attr {
    key: "T"
    value {
      type: DT_FLOAT
    }
  }
}
node {
  name: "Rbn1a/cond/AssignMovingAvg/AssignSub"
  op: "AssignSub"
  input: "Rbn1a/cond/AssignMovingAvg/AssignSub/Switch:1"
  input: "Rbn1a/cond/AssignMovingAvg/mul"
  attr {
    key: "T"
    value {
      type: DT_FLOAT
    }
  }
  attr {
    key: "_class"
    value {
      list {
        s: "loc:@Rbn1a/moving_mean"
      }
    }
  }
  attr {
    key: "use_locking"
    value {
      b: false
    }
  }
}
node {
  name: "Rbn1a/cond/AssignMovingAvg/AssignSub/Switch"
  op: "RefSwitch"
  input: "Rbn1a/Rbn1a/moving_mean/biased"
  input: "Rbn1a/cond/pred_id"
  attr {
    key: "T"
    value {
      type: DT_FLOAT
    }
  }
  attr {
    key: "_class"
    value {
      list {
        s: "loc:@Rbn1a/moving_mean"
      }
    }
  }
}
node {
  name: "Rbn1a/cond/AssignMovingAvg/AssignAdd/value"
  op: "Const"
  input: "^Rbn1a/cond/switch_t"
  attr {
    key: "dtype"
    value {
      type: DT_FLOAT
    }
  }
  attr {
    key: "value"
    value {
      tensor {
        dtype: DT_FLOAT
        tensor_shape {
        }
        float_val: 1.0
      }
    }
  }
}
node {
  name: "Rbn1a/cond/AssignMovingAvg/AssignAdd"
  op: "AssignAdd"
  input: "Rbn1a/cond/AssignMovingAvg/AssignAdd/Switch:1"
  input: "Rbn1a/cond/AssignMovingAvg/AssignAdd/value"
  attr {
    key: "T"
    value {
      type: DT_FLOAT
    }
  }
  attr {
    key: "_class"
    value {
      list {
        s: "loc:@Rbn1a/moving_mean"
      }
    }
  }
  attr {
    key: "use_locking"
    value {
      b: false
    }
  }
}
node {
  name: "Rbn1a/cond/AssignMovingAvg/AssignAdd/Switch"
  op: "RefSwitch"
  input: "Rbn1a/Rbn1a/moving_mean/local_step"
  input: "Rbn1a/cond/pred_id"
  attr {
    key: "T"
    value {
      type: DT_FLOAT
    }
  }
  attr {
    key: "_class"
    value {
      list {
        s: "loc:@Rbn1a/moving_mean"
      }
    }
  }
}
node {
  name: "Rbn1a/cond/AssignMovingAvg/sub_1/x"
  op: "Const"
  input: "^Rbn1a/cond/switch_t"
  attr {
    key: "dtype"
    value {
      type: DT_FLOAT
    }
  }
  attr {
    key: "value"
    value {
      tensor {
        dtype: DT_FLOAT
        tensor_shape {
        }
        float_val: 1.0
      }
    }
  }
}
node {
  name: "Rbn1a/cond/AssignMovingAvg/sub_1"
  op: "Sub"
  input: "Rbn1a/cond/AssignMovingAvg/sub_1/x"
  input: "Rbn1a/cond/AssignMovingAvg/decay"
  attr {
    key: "T"
    value {
      type: DT_FLOAT
    }
  }
}
node {
  name: "Rbn1a/cond/AssignMovingAvg/Pow"
  op: "Pow"
  input: "Rbn1a/cond/AssignMovingAvg/sub_1"
  input: "Rbn1a/cond/AssignMovingAvg/AssignAdd"
  attr {
    key: "T"
    value {
      type: DT_FLOAT
    }
  }
}
node {
  name: "Rbn1a/cond/AssignMovingAvg/sub_2/x"
  op: "Const"
  input: "^Rbn1a/cond/switch_t"
  attr {
    key: "dtype"
    value {
      type: DT_FLOAT
    }
  }
  attr {
    key: "value"
    value {
      tensor {
        dtype: DT_FLOAT
        tensor_shape {
        }
        float_val: 1.0
      }
    }
  }
}
node {
  name: "Rbn1a/cond/AssignMovingAvg/sub_2"
  op: "Sub"
  input: "Rbn1a/cond/AssignMovingAvg/sub_2/x"
  input: "Rbn1a/cond/AssignMovingAvg/Pow"
  attr {
    key: "T"
    value {
      type: DT_FLOAT
    }
  }
}
node {
  name: "Rbn1a/cond/AssignMovingAvg/truediv"
  op: "RealDiv"
  input: "Rbn1a/cond/AssignMovingAvg/AssignSub"
  input: "Rbn1a/cond/AssignMovingAvg/sub_2"
  attr {
    key: "T"
    value {
      type: DT_FLOAT
    }
  }
}
node {
  name: "Rbn1a/cond/AssignMovingAvg"
  op: "Assign"
  input: "Rbn1a/cond/AssignMovingAvg/Switch:1"
  input: "Rbn1a/cond/AssignMovingAvg/truediv"
  attr {
    key: "T"
    value {
      type: DT_FLOAT
    }
  }
  attr {
    key: "_class"
    value {
      list {
        s: "loc:@Rbn1a/moving_mean"
      }
    }
  }
  attr {
    key: "use_locking"
    value {
      b: true
    }
  }
  attr {
    key: "validate_shape"
    value {
      b: true
    }
  }
}
node {
  name: "Rbn1a/cond/AssignMovingAvg/Switch"
  op: "RefSwitch"
  input: "Rbn1a/moving_mean"
  input: "Rbn1a/cond/pred_id"
  attr {
    key: "T"
    value {
      type: DT_FLOAT
    }
  }
  attr {
    key: "_class"
    value {
      list {
        s: "loc:@Rbn1a/moving_mean"
      }
    }
  }
}
node {
  name: "Rbn1a/cond/AssignMovingAvg_1/decay"
  op: "Const"
  input: "^Rbn1a/cond/switch_t"
  attr {
    key: "dtype"
    value {
      type: DT_FLOAT
    }
  }
  attr {
    key: "value"
    value {
      tensor {
        dtype: DT_FLOAT
        tensor_shape {
        }
        float_val: 0.001
      }
    }
  }
}
node {
  name: "Rbn1a/Rbn1a/moving_variance/biased/Initializer/zeros"
  op: "Const"
  attr {
    key: "_class"
    value {
      list {
        s: "loc:@Rbn1a/moving_variance"
      }
    }
  }
  attr {
    key: "dtype"
    value {
      type: DT_FLOAT
    }
  }
  attr {
    key: "value"
    value {
      tensor {
        dtype: DT_FLOAT
        tensor_shape {
          dim {
            size: 64
          }
        }
        float_val: 0.0
      }
    }
  }
}
node {
  name: "Rbn1a/Rbn1a/moving_variance/biased"
  op: "VariableV2"
  attr {
    key: "_class"
    value {
      list {
        s: "loc:@Rbn1a/moving_variance"
      }
    }
  }
  attr {
    key: "container"
    value {
      s: ""
    }
  }
  attr {
    key: "dtype"
    value {
      type: DT_FLOAT
    }
  }
  attr {
    key: "shape"
    value {
      shape {
        dim {
          size: 64
        }
      }
    }
  }
  attr {
    key: "shared_name"
    value {
      s: ""
    }
  }
}
node {
  name: "Rbn1a/Rbn1a/moving_variance/biased/Assign"
  op: "Assign"
  input: "Rbn1a/Rbn1a/moving_variance/biased"
  input: "Rbn1a/Rbn1a/moving_variance/biased/Initializer/zeros"
  attr {
    key: "T"
    value {
      type: DT_FLOAT
    }
  }
  attr {
    key: "_class"
    value {
      list {
        s: "loc:@Rbn1a/moving_variance"
      }
    }
  }
  attr {
    key: "use_locking"
    value {
      b: true
    }
  }
  attr {
    key: "validate_shape"
    value {
      b: true
    }
  }
}
node {
  name: "Rbn1a/Rbn1a/moving_variance/biased/read"
  op: "Identity"
  input: "Rbn1a/Rbn1a/moving_variance/biased"
  attr {
    key: "T"
    value {
      type: DT_FLOAT
    }
  }
  attr {
    key: "_class"
    value {
      list {
        s: "loc:@Rbn1a/moving_variance"
      }
    }
  }
}
node {
  name: "Rbn1a/Rbn1a/moving_variance/local_step/Initializer/zeros"
  op: "Const"
  attr {
    key: "_class"
    value {
      list {
        s: "loc:@Rbn1a/moving_variance"
      }
    }
  }
  attr {
    key: "dtype"
    value {
      type: DT_FLOAT
    }
  }
  attr {
    key: "value"
    value {
      tensor {
        dtype: DT_FLOAT
        tensor_shape {
        }
        float_val: 0.0
      }
    }
  }
}
node {
  name: "Rbn1a/Rbn1a/moving_variance/local_step"
  op: "VariableV2"
  attr {
    key: "_class"
    value {
      list {
        s: "loc:@Rbn1a/moving_variance"
      }
    }
  }
  attr {
    key: "container"
    value {
      s: ""
    }
  }
  attr {
    key: "dtype"
    value {
      type: DT_FLOAT
    }
  }
  attr {
    key: "shape"
    value {
      shape {
      }
    }
  }
  attr {
    key: "shared_name"
    value {
      s: ""
    }
  }
}
node {
  name: "Rbn1a/Rbn1a/moving_variance/local_step/Assign"
  op: "Assign"
  input: "Rbn1a/Rbn1a/moving_variance/local_step"
  input: "Rbn1a/Rbn1a/moving_variance/local_step/Initializer/zeros"
  attr {
    key: "T"
    value {
      type: DT_FLOAT
    }
  }
  attr {
    key: "_class"
    value {
      list {
        s: "loc:@Rbn1a/moving_variance"
      }
    }
  }
  attr {
    key: "use_locking"
    value {
      b: true
    }
  }
  attr {
    key: "validate_shape"
    value {
      b: true
    }
  }
}
node {
  name: "Rbn1a/Rbn1a/moving_variance/local_step/read"
  op: "Identity"
  input: "Rbn1a/Rbn1a/moving_variance/local_step"
  attr {
    key: "T"
    value {
      type: DT_FLOAT
    }
  }
  attr {
    key: "_class"
    value {
      list {
        s: "loc:@Rbn1a/moving_variance"
      }
    }
  }
}
node {
  name: "Rbn1a/cond/AssignMovingAvg_1/sub"
  op: "Sub"
  input: "Rbn1a/cond/AssignMovingAvg_1/sub/Switch:1"
  input: "Rbn1a/cond/moments/Squeeze_1"
  attr {
    key: "T"
    value {
      type: DT_FLOAT
    }
  }
}
node {
  name: "Rbn1a/cond/AssignMovingAvg_1/sub/Switch"
  op: "Switch"
  input: "Rbn1a/Rbn1a/moving_variance/biased/read"
  input: "Rbn1a/cond/pred_id"
  attr {
    key: "T"
    value {
      type: DT_FLOAT
    }
  }
  attr {
    key: "_class"
    value {
      list {
        s: "loc:@Rbn1a/moving_variance"
      }
    }
  }
}
node {
  name: "Rbn1a/cond/AssignMovingAvg_1/mul"
  op: "Mul"
  input: "Rbn1a/cond/AssignMovingAvg_1/sub"
  input: "Rbn1a/cond/AssignMovingAvg_1/decay"
  attr {
    key: "T"
    value {
      type: DT_FLOAT
    }
  }
}
node {
  name: "Rbn1a/cond/AssignMovingAvg_1/AssignSub"
  op: "AssignSub"
  input: "Rbn1a/cond/AssignMovingAvg_1/AssignSub/Switch:1"
  input: "Rbn1a/cond/AssignMovingAvg_1/mul"
  attr {
    key: "T"
    value {
      type: DT_FLOAT
    }
  }
  attr {
    key: "_class"
    value {
      list {
        s: "loc:@Rbn1a/moving_variance"
      }
    }
  }
  attr {
    key: "use_locking"
    value {
      b: false
    }
  }
}
node {
  name: "Rbn1a/cond/AssignMovingAvg_1/AssignSub/Switch"
  op: "RefSwitch"
  input: "Rbn1a/Rbn1a/moving_variance/biased"
  input: "Rbn1a/cond/pred_id"
  attr {
    key: "T"
    value {
      type: DT_FLOAT
    }
  }
  attr {
    key: "_class"
    value {
      list {
        s: "loc:@Rbn1a/moving_variance"
      }
    }
  }
}
node {
  name: "Rbn1a/cond/AssignMovingAvg_1/AssignAdd/value"
  op: "Const"
  input: "^Rbn1a/cond/switch_t"
  attr {
    key: "dtype"
    value {
      type: DT_FLOAT
    }
  }
  attr {
    key: "value"
    value {
      tensor {
        dtype: DT_FLOAT
        tensor_shape {
        }
        float_val: 1.0
      }
    }
  }
}
node {
  name: "Rbn1a/cond/AssignMovingAvg_1/AssignAdd"
  op: "AssignAdd"
  input: "Rbn1a/cond/AssignMovingAvg_1/AssignAdd/Switch:1"
  input: "Rbn1a/cond/AssignMovingAvg_1/AssignAdd/value"
  attr {
    key: "T"
    value {
      type: DT_FLOAT
    }
  }
  attr {
    key: "_class"
    value {
      list {
        s: "loc:@Rbn1a/moving_variance"
      }
    }
  }
  attr {
    key: "use_locking"
    value {
      b: false
    }
  }
}
node {
  name: "Rbn1a/cond/AssignMovingAvg_1/AssignAdd/Switch"
  op: "RefSwitch"
  input: "Rbn1a/Rbn1a/moving_variance/local_step"
  input: "Rbn1a/cond/pred_id"
  attr {
    key: "T"
    value {
      type: DT_FLOAT
    }
  }
  attr {
    key: "_class"
    value {
      list {
        s: "loc:@Rbn1a/moving_variance"
      }
    }
  }
}
node {
  name: "Rbn1a/cond/AssignMovingAvg_1/sub_1/x"
  op: "Const"
  input: "^Rbn1a/cond/switch_t"
  attr {
    key: "dtype"
    value {
      type: DT_FLOAT
    }
  }
  attr {
    key: "value"
    value {
      tensor {
        dtype: DT_FLOAT
        tensor_shape {
        }
        float_val: 1.0
      }
    }
  }
}
node {
  name: "Rbn1a/cond/AssignMovingAvg_1/sub_1"
  op: "Sub"
  input: "Rbn1a/cond/AssignMovingAvg_1/sub_1/x"
  input: "Rbn1a/cond/AssignMovingAvg_1/decay"
  attr {
    key: "T"
    value {
      type: DT_FLOAT
    }
  }
}
node {
  name: "Rbn1a/cond/AssignMovingAvg_1/Pow"
  op: "Pow"
  input: "Rbn1a/cond/AssignMovingAvg_1/sub_1"
  input: "Rbn1a/cond/AssignMovingAvg_1/AssignAdd"
  attr {
    key: "T"
    value {
      type: DT_FLOAT
    }
  }
}
node {
  name: "Rbn1a/cond/AssignMovingAvg_1/sub_2/x"
  op: "Const"
  input: "^Rbn1a/cond/switch_t"
  attr {
    key: "dtype"
    value {
      type: DT_FLOAT
    }
  }
  attr {
    key: "value"
    value {
      tensor {
        dtype: DT_FLOAT
        tensor_shape {
        }
        float_val: 1.0
      }
    }
  }
}
node {
  name: "Rbn1a/cond/AssignMovingAvg_1/sub_2"
  op: "Sub"
  input: "Rbn1a/cond/AssignMovingAvg_1/sub_2/x"
  input: "Rbn1a/cond/AssignMovingAvg_1/Pow"
  attr {
    key: "T"
    value {
      type: DT_FLOAT
    }
  }
}
node {
  name: "Rbn1a/cond/AssignMovingAvg_1/truediv"
  op: "RealDiv"
  input: "Rbn1a/cond/AssignMovingAvg_1/AssignSub"
  input: "Rbn1a/cond/AssignMovingAvg_1/sub_2"
  attr {
    key: "T"
    value {
      type: DT_FLOAT
    }
  }
}
node {
  name: "Rbn1a/cond/AssignMovingAvg_1"
  op: "Assign"
  input: "Rbn1a/cond/AssignMovingAvg_1/Switch:1"
  input: "Rbn1a/cond/AssignMovingAvg_1/truediv"
  attr {
    key: "T"
    value {
      type: DT_FLOAT
    }
  }
  attr {
    key: "_class"
    value {
      list {
        s: "loc:@Rbn1a/moving_variance"
      }
    }
  }
  attr {
    key: "use_locking"
    value {
      b: true
    }
  }
  attr {
    key: "validate_shape"
    value {
      b: true
    }
  }
}
node {
  name: "Rbn1a/cond/AssignMovingAvg_1/Switch"
  op: "RefSwitch"
  input: "Rbn1a/moving_variance"
  input: "Rbn1a/cond/pred_id"
  attr {
    key: "T"
    value {
      type: DT_FLOAT
    }
  }
  attr {
    key: "_class"
    value {
      list {
        s: "loc:@Rbn1a/moving_variance"
      }
    }
  }
}
node {
  name: "Rbn1a/cond/Identity"
  op: "Identity"
  input: "Rbn1a/cond/moments/Squeeze"
  input: "^Rbn1a/cond/AssignMovingAvg"
  input: "^Rbn1a/cond/AssignMovingAvg_1"
  attr {
    key: "T"
    value {
      type: DT_FLOAT
    }
  }
}
node {
  name: "Rbn1a/cond/Identity_1"
  op: "Identity"
  input: "Rbn1a/cond/moments/Squeeze_1"
  input: "^Rbn1a/cond/AssignMovingAvg"
  input: "^Rbn1a/cond/AssignMovingAvg_1"
  attr {
    key: "T"
    value {
      type: DT_FLOAT
    }
  }
}
node {
  name: "Rbn1a/cond/Switch_1"
  op: "Switch"
  input: "Rbn1a/moving_mean/read"
  input: "Rbn1a/cond/pred_id"
  attr {
    key: "T"
    value {
      type: DT_FLOAT
    }
  }
  attr {
    key: "_class"
    value {
      list {
        s: "loc:@Rbn1a/moving_mean"
      }
    }
  }
}
node {
  name: "Rbn1a/cond/Switch_2"
  op: "Switch"
  input: "Rbn1a/moving_variance/read"
  input: "Rbn1a/cond/pred_id"
  attr {
    key: "T"
    value {
      type: DT_FLOAT
    }
  }
  attr {
    key: "_class"
    value {
      list {
        s: "loc:@Rbn1a/moving_variance"
      }
    }
  }
}
node {
  name: "Rbn1a/cond/Merge"
  op: "Merge"
  input: "Rbn1a/cond/Switch_1"
  input: "Rbn1a/cond/Identity"
  attr {
    key: "N"
    value {
      i: 2
    }
  }
  attr {
    key: "T"
    value {
      type: DT_FLOAT
    }
  }
}
node {
  name: "Rbn1a/cond/Merge_1"
  op: "Merge"
  input: "Rbn1a/cond/Switch_2"
  input: "Rbn1a/cond/Identity_1"
  attr {
    key: "N"
    value {
      i: 2
    }
  }
  attr {
    key: "T"
    value {
      type: DT_FLOAT
    }
  }
}
node {
  name: "batchnorm/add/y"
  op: "Const"
  attr {
    key: "dtype"
    value {
      type: DT_FLOAT
    }
  }
  attr {
    key: "value"
    value {
      tensor {
        dtype: DT_FLOAT
        tensor_shape {
        }
        float_val: 0.001
      }
    }
  }
}
node {
  name: "batchnorm/add"
  op: "AddV2"
  input: "Rbn1a/cond/Merge_1"
  input: "batchnorm/add/y"
  attr {
    key: "T"
    value {
      type: DT_FLOAT
    }
  }
}
node {
  name: "batchnorm/Rsqrt"
  op: "Rsqrt"
  input: "batchnorm/add"
  attr {
    key: "T"
    value {
      type: DT_FLOAT
    }
  }
}
node {
  name: "batchnorm/mul"
  op: "Mul"
  input: "batchnorm/Rsqrt"
  input: "Rbn1a/gamma/read"
  attr {
    key: "T"
    value {
      type: DT_FLOAT
    }
  }
}
node {
  name: "batchnorm/mul_1"
  op: "Mul"
  input: "add"
  input: "batchnorm/mul"
  attr {
    key: "T"
    value {
      type: DT_FLOAT
    }
  }
}
node {
  name: "batchnorm/mul_2"
  op: "Mul"
  input: "Rbn1a/cond/Merge"
  input: "batchnorm/mul"
  attr {
    key: "T"
    value {
      type: DT_FLOAT
    }
  }
}
node {
  name: "batchnorm/sub"
  op: "Sub"
  input: "Rbn1a/beta/read"
  input: "batchnorm/mul_2"
  attr {
    key: "T"
    value {
      type: DT_FLOAT
    }
  }
}
node {
  name: "batchnorm/add_1"
  op: "AddV2"
  input: "batchnorm/mul_1"
  input: "batchnorm/sub"
  attr {
    key: "T"
    value {
      type: DT_FLOAT
    }
  }
}
node {
  name: "Relu"
  op: "Relu"
  input: "batchnorm/add_1"
  attr {
    key: "T"
    value {
      type: DT_FLOAT
    }
  }
}
node {
  name: "Rconv1a/W/Initializer/random_uniform/shape"
  op: "Const"
  attr {
    key: "_class"
    value {
      list {
        s: "loc:@Rconv1a/W"
      }
    }
  }
  attr {
    key: "dtype"
    value {
      type: DT_INT32
    }
  }
  attr {
    key: "value"
    value {
      tensor {
        dtype: DT_INT32
        tensor_shape {
          dim {
            size: 5
          }
        }
        tensor_content: "\001\000\000\000\001\000\000\000\001\000\000\000@\000\000\000@\000\000\000"
      }
    }
  }
}
node {
  name: "Rconv1a/W/Initializer/random_uniform/min"
  op: "Const"
  attr {
    key: "_class"
    value {
      list {
        s: "loc:@Rconv1a/W"
      }
    }
  }
  attr {
    key: "dtype"
    value {
      type: DT_FLOAT
    }
  }
  attr {
    key: "value"
    value {
      tensor {
        dtype: DT_FLOAT
        tensor_shape {
        }
        float_val: -0.30618623
      }
    }
  }
}
node {
  name: "Rconv1a/W/Initializer/random_uniform/max"
  op: "Const"
  attr {
    key: "_class"
    value {
      list {
        s: "loc:@Rconv1a/W"
      }
    }
  }
  attr {
    key: "dtype"
    value {
      type: DT_FLOAT
    }
  }
  attr {
    key: "value"
    value {
      tensor {
        dtype: DT_FLOAT
        tensor_shape {
        }
        float_val: 0.30618623
      }
    }
  }
}
node {
  name: "Rconv1a/W/Initializer/random_uniform/RandomUniform"
  op: "RandomUniform"
  input: "Rconv1a/W/Initializer/random_uniform/shape"
  attr {
    key: "T"
    value {
      type: DT_INT32
    }
  }
  attr {
    key: "_class"
    value {
      list {
        s: "loc:@Rconv1a/W"
      }
    }
  }
  attr {
    key: "dtype"
    value {
      type: DT_FLOAT
    }
  }
  attr {
    key: "seed"
    value {
      i: 0
    }
  }
  attr {
    key: "seed2"
    value {
      i: 0
    }
  }
}
node {
  name: "Rconv1a/W/Initializer/random_uniform/sub"
  op: "Sub"
  input: "Rconv1a/W/Initializer/random_uniform/max"
  input: "Rconv1a/W/Initializer/random_uniform/min"
  attr {
    key: "T"
    value {
      type: DT_FLOAT
    }
  }
  attr {
    key: "_class"
    value {
      list {
        s: "loc:@Rconv1a/W"
      }
    }
  }
}
node {
  name: "Rconv1a/W/Initializer/random_uniform/mul"
  op: "Mul"
  input: "Rconv1a/W/Initializer/random_uniform/RandomUniform"
  input: "Rconv1a/W/Initializer/random_uniform/sub"
  attr {
    key: "T"
    value {
      type: DT_FLOAT
    }
  }
  attr {
    key: "_class"
    value {
      list {
        s: "loc:@Rconv1a/W"
      }
    }
  }
}
node {
  name: "Rconv1a/W/Initializer/random_uniform"
  op: "Add"
  input: "Rconv1a/W/Initializer/random_uniform/mul"
  input: "Rconv1a/W/Initializer/random_uniform/min"
  attr {
    key: "T"
    value {
      type: DT_FLOAT
    }
  }
  attr {
    key: "_class"
    value {
      list {
        s: "loc:@Rconv1a/W"
      }
    }
  }
}
node {
  name: "Rconv1a/W"
  op: "VariableV2"
  attr {
    key: "_class"
    value {
      list {
        s: "loc:@Rconv1a/W"
      }
    }
  }
  attr {
    key: "container"
    value {
      s: ""
    }
  }
  attr {
    key: "dtype"
    value {
      type: DT_FLOAT
    }
  }
  attr {
    key: "shape"
    value {
      shape {
        dim {
          size: 1
        }
        dim {
          size: 1
        }
        dim {
          size: 1
        }
        dim {
          size: 64
        }
        dim {
          size: 64
        }
      }
    }
  }
  attr {
    key: "shared_name"
    value {
      s: ""
    }
  }
}
node {
  name: "Rconv1a/W/Assign"
  op: "Assign"
  input: "Rconv1a/W"
  input: "Rconv1a/W/Initializer/random_uniform"
  attr {
    key: "T"
    value {
      type: DT_FLOAT
    }
  }
  attr {
    key: "_class"
    value {
      list {
        s: "loc:@Rconv1a/W"
      }
    }
  }
  attr {
    key: "use_locking"
    value {
      b: true
    }
  }
  attr {
    key: "validate_shape"
    value {
      b: true
    }
  }
}
node {
  name: "Rconv1a/W/read"
  op: "Identity"
  input: "Rconv1a/W"
  attr {
    key: "T"
    value {
      type: DT_FLOAT
    }
  }
  attr {
    key: "_class"
    value {
      list {
        s: "loc:@Rconv1a/W"
      }
    }
  }
}
node {
  name: "Rconv1a/b/Initializer/Const"
  op: "Const"
  attr {
    key: "_class"
    value {
      list {
        s: "loc:@Rconv1a/b"
      }
    }
  }
  attr {
    key: "dtype"
    value {
      type: DT_FLOAT
    }
  }
  attr {
    key: "value"
    value {
      tensor {
        dtype: DT_FLOAT
        tensor_shape {
          dim {
            size: 64
          }
        }
        float_val: 0.0
      }
    }
  }
}
node {
  name: "Rconv1a/b"
  op: "VariableV2"
  attr {
    key: "_class"
    value {
      list {
        s: "loc:@Rconv1a/b"
      }
    }
  }
  attr {
    key: "container"
    value {
      s: ""
    }
  }
  attr {
    key: "dtype"
    value {
      type: DT_FLOAT
    }
  }
  attr {
    key: "shape"
    value {
      shape {
        dim {
          size: 64
        }
      }
    }
  }
  attr {
    key: "shared_name"
    value {
      s: ""
    }
  }
}
node {
  name: "Rconv1a/b/Assign"
  op: "Assign"
  input: "Rconv1a/b"
  input: "Rconv1a/b/Initializer/Const"
  attr {
    key: "T"
    value {
      type: DT_FLOAT
    }
  }
  attr {
    key: "_class"
    value {
      list {
        s: "loc:@Rconv1a/b"
      }
    }
  }
  attr {
    key: "use_locking"
    value {
      b: true
    }
  }
  attr {
    key: "validate_shape"
    value {
      b: true
    }
  }
}
node {
  name: "Rconv1a/b/read"
  op: "Identity"
  input: "Rconv1a/b"
  attr {
    key: "T"
    value {
      type: DT_FLOAT
    }
  }
  attr {
    key: "_class"
    value {
      list {
        s: "loc:@Rconv1a/b"
      }
    }
  }
}
node {
  name: "Conv3D_1"
  op: "Conv3D"
  input: "Relu"
  input: "Rconv1a/W/read"
  attr {
    key: "T"
    value {
      type: DT_FLOAT
    }
  }
  attr {
    key: "data_format"
    value {
      s: "NDHWC"
    }
  }
  attr {
    key: "dilations"
    value {
      list {
        i: 1
        i: 1
        i: 1
        i: 1
        i: 1
      }
    }
  }
  attr {
    key: "padding"
    value {
      s: "VALID"
    }
  }
  attr {
    key: "strides"
    value {
      list {
        i: 1
        i: 1
        i: 1
        i: 1
        i: 1
      }
    }
  }
}
node {
  name: "add_1"
  op: "AddV2"
  input: "Conv3D_1"
  input: "Rconv1a/b/read"
  attr {
    key: "T"
    value {
      type: DT_FLOAT
    }
  }
}
node {
  name: "Rbn1b/beta/Initializer/Const"
  op: "Const"
  attr {
    key: "_class"
    value {
      list {
        s: "loc:@Rbn1b/beta"
      }
    }
  }
  attr {
    key: "dtype"
    value {
      type: DT_FLOAT
    }
  }
  attr {
    key: "value"
    value {
      tensor {
        dtype: DT_FLOAT
        tensor_shape {
          dim {
            size: 64
          }
        }
        float_val: 0.0
      }
    }
  }
}
node {
  name: "Rbn1b/beta"
  op: "VariableV2"
  attr {
    key: "_class"
    value {
      list {
        s: "loc:@Rbn1b/beta"
      }
    }
  }
  attr {
    key: "container"
    value {
      s: ""
    }
  }
  attr {
    key: "dtype"
    value {
      type: DT_FLOAT
    }
  }
  attr {
    key: "shape"
    value {
      shape {
        dim {
          size: 64
        }
      }
    }
  }
  attr {
    key: "shared_name"
    value {
      s: ""
    }
  }
}
node {
  name: "Rbn1b/beta/Assign"
  op: "Assign"
  input: "Rbn1b/beta"
  input: "Rbn1b/beta/Initializer/Const"
  attr {
    key: "T"
    value {
      type: DT_FLOAT
    }
  }
  attr {
    key: "_class"
    value {
      list {
        s: "loc:@Rbn1b/beta"
      }
    }
  }
  attr {
    key: "use_locking"
    value {
      b: true
    }
  }
  attr {
    key: "validate_shape"
    value {
      b: true
    }
  }
}
node {
  name: "Rbn1b/beta/read"
  op: "Identity"
  input: "Rbn1b/beta"
  attr {
    key: "T"
    value {
      type: DT_FLOAT
    }
  }
  attr {
    key: "_class"
    value {
      list {
        s: "loc:@Rbn1b/beta"
      }
    }
  }
}
node {
  name: "Rbn1b/gamma/Initializer/Const"
  op: "Const"
  attr {
    key: "_class"
    value {
      list {
        s: "loc:@Rbn1b/gamma"
      }
    }
  }
  attr {
    key: "dtype"
    value {
      type: DT_FLOAT
    }
  }
  attr {
    key: "value"
    value {
      tensor {
        dtype: DT_FLOAT
        tensor_shape {
          dim {
            size: 64
          }
        }
        float_val: 1.0
      }
    }
  }
}
node {
  name: "Rbn1b/gamma"
  op: "VariableV2"
  attr {
    key: "_class"
    value {
      list {
        s: "loc:@Rbn1b/gamma"
      }
    }
  }
  attr {
    key: "container"
    value {
      s: ""
    }
  }
  attr {
    key: "dtype"
    value {
      type: DT_FLOAT
    }
  }
  attr {
    key: "shape"
    value {
      shape {
        dim {
          size: 64
        }
      }
    }
  }
  attr {
    key: "shared_name"
    value {
      s: ""
    }
  }
}
node {
  name: "Rbn1b/gamma/Assign"
  op: "Assign"
  input: "Rbn1b/gamma"
  input: "Rbn1b/gamma/Initializer/Const"
  attr {
    key: "T"
    value {
      type: DT_FLOAT
    }
  }
  attr {
    key: "_class"
    value {
      list {
        s: "loc:@Rbn1b/gamma"
      }
    }
  }
  attr {
    key: "use_locking"
    value {
      b: true
    }
  }
  attr {
    key: "validate_shape"
    value {
      b: true
    }
  }
}
node {
  name: "Rbn1b/gamma/read"
  op: "Identity"
  input: "Rbn1b/gamma"
  attr {
    key: "T"
    value {
      type: DT_FLOAT
    }
  }
  attr {
    key: "_class"
    value {
      list {
        s: "loc:@Rbn1b/gamma"
      }
    }
  }
}
node {
  name: "Rbn1b/moving_mean/Initializer/Const"
  op: "Const"
  attr {
    key: "_class"
    value {
      list {
        s: "loc:@Rbn1b/moving_mean"
      }
    }
  }
  attr {
    key: "dtype"
    value {
      type: DT_FLOAT
    }
  }
  attr {
    key: "value"
    value {
      tensor {
        dtype: DT_FLOAT
        tensor_shape {
          dim {
            size: 64
          }
        }
        float_val: 0.0
      }
    }
  }
}
node {
  name: "Rbn1b/moving_mean"
  op: "VariableV2"
  attr {
    key: "_class"
    value {
      list {
        s: "loc:@Rbn1b/moving_mean"
      }
    }
  }
  attr {
    key: "container"
    value {
      s: ""
    }
  }
  attr {
    key: "dtype"
    value {
      type: DT_FLOAT
    }
  }
  attr {
    key: "shape"
    value {
      shape {
        dim {
          size: 64
        }
      }
    }
  }
  attr {
    key: "shared_name"
    value {
      s: ""
    }
  }
}
node {
  name: "Rbn1b/moving_mean/Assign"
  op: "Assign"
  input: "Rbn1b/moving_mean"
  input: "Rbn1b/moving_mean/Initializer/Const"
  attr {
    key: "T"
    value {
      type: DT_FLOAT
    }
  }
  attr {
    key: "_class"
    value {
      list {
        s: "loc:@Rbn1b/moving_mean"
      }
    }
  }
  attr {
    key: "use_locking"
    value {
      b: true
    }
  }
  attr {
    key: "validate_shape"
    value {
      b: true
    }
  }
}
node {
  name: "Rbn1b/moving_mean/read"
  op: "Identity"
  input: "Rbn1b/moving_mean"
  attr {
    key: "T"
    value {
      type: DT_FLOAT
    }
  }
  attr {
    key: "_class"
    value {
      list {
        s: "loc:@Rbn1b/moving_mean"
      }
    }
  }
}
node {
  name: "Rbn1b/moving_variance/Initializer/Const"
  op: "Const"
  attr {
    key: "_class"
    value {
      list {
        s: "loc:@Rbn1b/moving_variance"
      }
    }
  }
  attr {
    key: "dtype"
    value {
      type: DT_FLOAT
    }
  }
  attr {
    key: "value"
    value {
      tensor {
        dtype: DT_FLOAT
        tensor_shape {
          dim {
            size: 64
          }
        }
        float_val: 0.0
      }
    }
  }
}
node {
  name: "Rbn1b/moving_variance"
  op: "VariableV2"
  attr {
    key: "_class"
    value {
      list {
        s: "loc:@Rbn1b/moving_variance"
      }
    }
  }
  attr {
    key: "container"
    value {
      s: ""
    }
  }
  attr {
    key: "dtype"
    value {
      type: DT_FLOAT
    }
  }
  attr {
    key: "shape"
    value {
      shape {
        dim {
          size: 64
        }
      }
    }
  }
  attr {
    key: "shared_name"
    value {
      s: ""
    }
  }
}
node {
  name: "Rbn1b/moving_variance/Assign"
  op: "Assign"
  input: "Rbn1b/moving_variance"
  input: "Rbn1b/moving_variance/Initializer/Const"
  attr {
    key: "T"
    value {
      type: DT_FLOAT
    }
  }
  attr {
    key: "_class"
    value {
      list {
        s: "loc:@Rbn1b/moving_variance"
      }
    }
  }
  attr {
    key: "use_locking"
    value {
      b: true
    }
  }
  attr {
    key: "validate_shape"
    value {
      b: true
    }
  }
}
node {
  name: "Rbn1b/moving_variance/read"
  op: "Identity"
  input: "Rbn1b/moving_variance"
  attr {
    key: "T"
    value {
      type: DT_FLOAT
    }
  }
  attr {
    key: "_class"
    value {
      list {
        s: "loc:@Rbn1b/moving_variance"
      }
    }
  }
}
node {
  name: "Rbn1b/cond/Switch"
  op: "Switch"
  input: "is_train"
  input: "is_train"
  attr {
    key: "T"
    value {
      type: DT_BOOL
    }
  }
}
node {
  name: "Rbn1b/cond/switch_t"
  op: "Identity"
  input: "Rbn1b/cond/Switch:1"
  attr {
    key: "T"
    value {
      type: DT_BOOL
    }
  }
}
node {
  name: "Rbn1b/cond/switch_f"
  op: "Identity"
  input: "Rbn1b/cond/Switch"
  attr {
    key: "T"
    value {
      type: DT_BOOL
    }
  }
}
node {
  name: "Rbn1b/cond/pred_id"
  op: "Identity"
  input: "is_train"
  attr {
    key: "T"
    value {
      type: DT_BOOL
    }
  }
}
node {
  name: "Rbn1b/cond/moments/mean/reduction_indices"
  op: "Const"
  input: "^Rbn1b/cond/switch_t"
  attr {
    key: "dtype"
    value {
      type: DT_INT32
    }
  }
  attr {
    key: "value"
    value {
      tensor {
        dtype: DT_INT32
        tensor_shape {
          dim {
            size: 4
          }
        }
        tensor_content: "\000\000\000\000\001\000\000\000\002\000\000\000\003\000\000\000"
      }
    }
  }
}
node {
  name: "Rbn1b/cond/moments/mean"
  op: "Mean"
  input: "Rbn1b/cond/moments/mean/Switch:1"
  input: "Rbn1b/cond/moments/mean/reduction_indices"
  attr {
    key: "T"
    value {
      type: DT_FLOAT
    }
  }
  attr {
    key: "Tidx"
    value {
      type: DT_INT32
    }
  }
  attr {
    key: "keep_dims"
    value {
      b: true
    }
  }
}
node {
  name: "Rbn1b/cond/moments/mean/Switch"
  op: "Switch"
  input: "add_1"
  input: "Rbn1b/cond/pred_id"
  attr {
    key: "T"
    value {
      type: DT_FLOAT
    }
  }
  attr {
    key: "_class"
    value {
      list {
        s: "loc:@add_1"
      }
    }
  }
}
node {
  name: "Rbn1b/cond/moments/StopGradient"
  op: "StopGradient"
  input: "Rbn1b/cond/moments/mean"
  attr {
    key: "T"
    value {
      type: DT_FLOAT
    }
  }
}
node {
  name: "Rbn1b/cond/moments/SquaredDifference"
  op: "SquaredDifference"
  input: "Rbn1b/cond/moments/mean/Switch:1"
  input: "Rbn1b/cond/moments/StopGradient"
  attr {
    key: "T"
    value {
      type: DT_FLOAT
    }
  }
}
node {
  name: "Rbn1b/cond/moments/variance/reduction_indices"
  op: "Const"
  input: "^Rbn1b/cond/switch_t"
  attr {
    key: "dtype"
    value {
      type: DT_INT32
    }
  }
  attr {
    key: "value"
    value {
      tensor {
        dtype: DT_INT32
        tensor_shape {
          dim {
            size: 4
          }
        }
        tensor_content: "\000\000\000\000\001\000\000\000\002\000\000\000\003\000\000\000"
      }
    }
  }
}
node {
  name: "Rbn1b/cond/moments/variance"
  op: "Mean"
  input: "Rbn1b/cond/moments/SquaredDifference"
  input: "Rbn1b/cond/moments/variance/reduction_indices"
  attr {
    key: "T"
    value {
      type: DT_FLOAT
    }
  }
  attr {
    key: "Tidx"
    value {
      type: DT_INT32
    }
  }
  attr {
    key: "keep_dims"
    value {
      b: true
    }
  }
}
node {
  name: "Rbn1b/cond/moments/Squeeze"
  op: "Squeeze"
  input: "Rbn1b/cond/moments/mean"
  attr {
    key: "T"
    value {
      type: DT_FLOAT
    }
  }
  attr {
    key: "squeeze_dims"
    value {
      list {
        i: 0
        i: 1
        i: 2
        i: 3
      }
    }
  }
}
node {
  name: "Rbn1b/cond/moments/Squeeze_1"
  op: "Squeeze"
  input: "Rbn1b/cond/moments/variance"
  attr {
    key: "T"
    value {
      type: DT_FLOAT
    }
  }
  attr {
    key: "squeeze_dims"
    value {
      list {
        i: 0
        i: 1
        i: 2
        i: 3
      }
    }
  }
}
node {
  name: "Rbn1b/cond/AssignMovingAvg/decay"
  op: "Const"
  input: "^Rbn1b/cond/switch_t"
  attr {
    key: "dtype"
    value {
      type: DT_FLOAT
    }
  }
  attr {
    key: "value"
    value {
      tensor {
        dtype: DT_FLOAT
        tensor_shape {
        }
        float_val: 0.001
      }
    }
  }
}
node {
  name: "Rbn1b/Rbn1b/moving_mean/biased/Initializer/zeros"
  op: "Const"
  attr {
    key: "_class"
    value {
      list {
        s: "loc:@Rbn1b/moving_mean"
      }
    }
  }
  attr {
    key: "dtype"
    value {
      type: DT_FLOAT
    }
  }
  attr {
    key: "value"
    value {
      tensor {
        dtype: DT_FLOAT
        tensor_shape {
          dim {
            size: 64
          }
        }
        float_val: 0.0
      }
    }
  }
}
node {
  name: "Rbn1b/Rbn1b/moving_mean/biased"
  op: "VariableV2"
  attr {
    key: "_class"
    value {
      list {
        s: "loc:@Rbn1b/moving_mean"
      }
    }
  }
  attr {
    key: "container"
    value {
      s: ""
    }
  }
  attr {
    key: "dtype"
    value {
      type: DT_FLOAT
    }
  }
  attr {
    key: "shape"
    value {
      shape {
        dim {
          size: 64
        }
      }
    }
  }
  attr {
    key: "shared_name"
    value {
      s: ""
    }
  }
}
node {
  name: "Rbn1b/Rbn1b/moving_mean/biased/Assign"
  op: "Assign"
  input: "Rbn1b/Rbn1b/moving_mean/biased"
  input: "Rbn1b/Rbn1b/moving_mean/biased/Initializer/zeros"
  attr {
    key: "T"
    value {
      type: DT_FLOAT
    }
  }
  attr {
    key: "_class"
    value {
      list {
        s: "loc:@Rbn1b/moving_mean"
      }
    }
  }
  attr {
    key: "use_locking"
    value {
      b: true
    }
  }
  attr {
    key: "validate_shape"
    value {
      b: true
    }
  }
}
node {
  name: "Rbn1b/Rbn1b/moving_mean/biased/read"
  op: "Identity"
  input: "Rbn1b/Rbn1b/moving_mean/biased"
  attr {
    key: "T"
    value {
      type: DT_FLOAT
    }
  }
  attr {
    key: "_class"
    value {
      list {
        s: "loc:@Rbn1b/moving_mean"
      }
    }
  }
}
node {
  name: "Rbn1b/Rbn1b/moving_mean/local_step/Initializer/zeros"
  op: "Const"
  attr {
    key: "_class"
    value {
      list {
        s: "loc:@Rbn1b/moving_mean"
      }
    }
  }
  attr {
    key: "dtype"
    value {
      type: DT_FLOAT
    }
  }
  attr {
    key: "value"
    value {
      tensor {
        dtype: DT_FLOAT
        tensor_shape {
        }
        float_val: 0.0
      }
    }
  }
}
node {
  name: "Rbn1b/Rbn1b/moving_mean/local_step"
  op: "VariableV2"
  attr {
    key: "_class"
    value {
      list {
        s: "loc:@Rbn1b/moving_mean"
      }
    }
  }
  attr {
    key: "container"
    value {
      s: ""
    }
  }
  attr {
    key: "dtype"
    value {
      type: DT_FLOAT
    }
  }
  attr {
    key: "shape"
    value {
      shape {
      }
    }
  }
  attr {
    key: "shared_name"
    value {
      s: ""
    }
  }
}
node {
  name: "Rbn1b/Rbn1b/moving_mean/local_step/Assign"
  op: "Assign"
  input: "Rbn1b/Rbn1b/moving_mean/local_step"
  input: "Rbn1b/Rbn1b/moving_mean/local_step/Initializer/zeros"
  attr {
    key: "T"
    value {
      type: DT_FLOAT
    }
  }
  attr {
    key: "_class"
    value {
      list {
        s: "loc:@Rbn1b/moving_mean"
      }
    }
  }
  attr {
    key: "use_locking"
    value {
      b: true
    }
  }
  attr {
    key: "validate_shape"
    value {
      b: true
    }
  }
}
node {
  name: "Rbn1b/Rbn1b/moving_mean/local_step/read"
  op: "Identity"
  input: "Rbn1b/Rbn1b/moving_mean/local_step"
  attr {
    key: "T"
    value {
      type: DT_FLOAT
    }
  }
  attr {
    key: "_class"
    value {
      list {
        s: "loc:@Rbn1b/moving_mean"
      }
    }
  }
}
node {
  name: "Rbn1b/cond/AssignMovingAvg/sub"
  op: "Sub"
  input: "Rbn1b/cond/AssignMovingAvg/sub/Switch:1"
  input: "Rbn1b/cond/moments/Squeeze"
  attr {
    key: "T"
    value {
      type: DT_FLOAT
    }
  }
}
node {
  name: "Rbn1b/cond/AssignMovingAvg/sub/Switch"
  op: "Switch"
  input: "Rbn1b/Rbn1b/moving_mean/biased/read"
  input: "Rbn1b/cond/pred_id"
  attr {
    key: "T"
    value {
      type: DT_FLOAT
    }
  }
  attr {
    key: "_class"
    value {
      list {
        s: "loc:@Rbn1b/moving_mean"
      }
    }
  }
}
node {
  name: "Rbn1b/cond/AssignMovingAvg/mul"
  op: "Mul"
  input: "Rbn1b/cond/AssignMovingAvg/sub"
  input: "Rbn1b/cond/AssignMovingAvg/decay"
  attr {
    key: "T"
    value {
      type: DT_FLOAT
    }
  }
}
node {
  name: "Rbn1b/cond/AssignMovingAvg/AssignSub"
  op: "AssignSub"
  input: "Rbn1b/cond/AssignMovingAvg/AssignSub/Switch:1"
  input: "Rbn1b/cond/AssignMovingAvg/mul"
  attr {
    key: "T"
    value {
      type: DT_FLOAT
    }
  }
  attr {
    key: "_class"
    value {
      list {
        s: "loc:@Rbn1b/moving_mean"
      }
    }
  }
  attr {
    key: "use_locking"
    value {
      b: false
    }
  }
}
node {
  name: "Rbn1b/cond/AssignMovingAvg/AssignSub/Switch"
  op: "RefSwitch"
  input: "Rbn1b/Rbn1b/moving_mean/biased"
  input: "Rbn1b/cond/pred_id"
  attr {
    key: "T"
    value {
      type: DT_FLOAT
    }
  }
  attr {
    key: "_class"
    value {
      list {
        s: "loc:@Rbn1b/moving_mean"
      }
    }
  }
}
node {
  name: "Rbn1b/cond/AssignMovingAvg/AssignAdd/value"
  op: "Const"
  input: "^Rbn1b/cond/switch_t"
  attr {
    key: "dtype"
    value {
      type: DT_FLOAT
    }
  }
  attr {
    key: "value"
    value {
      tensor {
        dtype: DT_FLOAT
        tensor_shape {
        }
        float_val: 1.0
      }
    }
  }
}
node {
  name: "Rbn1b/cond/AssignMovingAvg/AssignAdd"
  op: "AssignAdd"
  input: "Rbn1b/cond/AssignMovingAvg/AssignAdd/Switch:1"
  input: "Rbn1b/cond/AssignMovingAvg/AssignAdd/value"
  attr {
    key: "T"
    value {
      type: DT_FLOAT
    }
  }
  attr {
    key: "_class"
    value {
      list {
        s: "loc:@Rbn1b/moving_mean"
      }
    }
  }
  attr {
    key: "use_locking"
    value {
      b: false
    }
  }
}
node {
  name: "Rbn1b/cond/AssignMovingAvg/AssignAdd/Switch"
  op: "RefSwitch"
  input: "Rbn1b/Rbn1b/moving_mean/local_step"
  input: "Rbn1b/cond/pred_id"
  attr {
    key: "T"
    value {
      type: DT_FLOAT
    }
  }
  attr {
    key: "_class"
    value {
      list {
        s: "loc:@Rbn1b/moving_mean"
      }
    }
  }
}
node {
  name: "Rbn1b/cond/AssignMovingAvg/sub_1/x"
  op: "Const"
  input: "^Rbn1b/cond/switch_t"
  attr {
    key: "dtype"
    value {
      type: DT_FLOAT
    }
  }
  attr {
    key: "value"
    value {
      tensor {
        dtype: DT_FLOAT
        tensor_shape {
        }
        float_val: 1.0
      }
    }
  }
}
node {
  name: "Rbn1b/cond/AssignMovingAvg/sub_1"
  op: "Sub"
  input: "Rbn1b/cond/AssignMovingAvg/sub_1/x"
  input: "Rbn1b/cond/AssignMovingAvg/decay"
  attr {
    key: "T"
    value {
      type: DT_FLOAT
    }
  }
}
node {
  name: "Rbn1b/cond/AssignMovingAvg/Pow"
  op: "Pow"
  input: "Rbn1b/cond/AssignMovingAvg/sub_1"
  input: "Rbn1b/cond/AssignMovingAvg/AssignAdd"
  attr {
    key: "T"
    value {
      type: DT_FLOAT
    }
  }
}
node {
  name: "Rbn1b/cond/AssignMovingAvg/sub_2/x"
  op: "Const"
  input: "^Rbn1b/cond/switch_t"
  attr {
    key: "dtype"
    value {
      type: DT_FLOAT
    }
  }
  attr {
    key: "value"
    value {
      tensor {
        dtype: DT_FLOAT
        tensor_shape {
        }
        float_val: 1.0
      }
    }
  }
}
node {
  name: "Rbn1b/cond/AssignMovingAvg/sub_2"
  op: "Sub"
  input: "Rbn1b/cond/AssignMovingAvg/sub_2/x"
  input: "Rbn1b/cond/AssignMovingAvg/Pow"
  attr {
    key: "T"
    value {
      type: DT_FLOAT
    }
  }
}
node {
  name: "Rbn1b/cond/AssignMovingAvg/truediv"
  op: "RealDiv"
  input: "Rbn1b/cond/AssignMovingAvg/AssignSub"
  input: "Rbn1b/cond/AssignMovingAvg/sub_2"
  attr {
    key: "T"
    value {
      type: DT_FLOAT
    }
  }
}
node {
  name: "Rbn1b/cond/AssignMovingAvg"
  op: "Assign"
  input: "Rbn1b/cond/AssignMovingAvg/Switch:1"
  input: "Rbn1b/cond/AssignMovingAvg/truediv"
  attr {
    key: "T"
    value {
      type: DT_FLOAT
    }
  }
  attr {
    key: "_class"
    value {
      list {
        s: "loc:@Rbn1b/moving_mean"
      }
    }
  }
  attr {
    key: "use_locking"
    value {
      b: true
    }
  }
  attr {
    key: "validate_shape"
    value {
      b: true
    }
  }
}
node {
  name: "Rbn1b/cond/AssignMovingAvg/Switch"
  op: "RefSwitch"
  input: "Rbn1b/moving_mean"
  input: "Rbn1b/cond/pred_id"
  attr {
    key: "T"
    value {
      type: DT_FLOAT
    }
  }
  attr {
    key: "_class"
    value {
      list {
        s: "loc:@Rbn1b/moving_mean"
      }
    }
  }
}
node {
  name: "Rbn1b/cond/AssignMovingAvg_1/decay"
  op: "Const"
  input: "^Rbn1b/cond/switch_t"
  attr {
    key: "dtype"
    value {
      type: DT_FLOAT
    }
  }
  attr {
    key: "value"
    value {
      tensor {
        dtype: DT_FLOAT
        tensor_shape {
        }
        float_val: 0.001
      }
    }
  }
}
node {
  name: "Rbn1b/Rbn1b/moving_variance/biased/Initializer/zeros"
  op: "Const"
  attr {
    key: "_class"
    value {
      list {
        s: "loc:@Rbn1b/moving_variance"
      }
    }
  }
  attr {
    key: "dtype"
    value {
      type: DT_FLOAT
    }
  }
  attr {
    key: "value"
    value {
      tensor {
        dtype: DT_FLOAT
        tensor_shape {
          dim {
            size: 64
          }
        }
        float_val: 0.0
      }
    }
  }
}
node {
  name: "Rbn1b/Rbn1b/moving_variance/biased"
  op: "VariableV2"
  attr {
    key: "_class"
    value {
      list {
        s: "loc:@Rbn1b/moving_variance"
      }
    }
  }
  attr {
    key: "container"
    value {
      s: ""
    }
  }
  attr {
    key: "dtype"
    value {
      type: DT_FLOAT
    }
  }
  attr {
    key: "shape"
    value {
      shape {
        dim {
          size: 64
        }
      }
    }
  }
  attr {
    key: "shared_name"
    value {
      s: ""
    }
  }
}
node {
  name: "Rbn1b/Rbn1b/moving_variance/biased/Assign"
  op: "Assign"
  input: "Rbn1b/Rbn1b/moving_variance/biased"
  input: "Rbn1b/Rbn1b/moving_variance/biased/Initializer/zeros"
  attr {
    key: "T"
    value {
      type: DT_FLOAT
    }
  }
  attr {
    key: "_class"
    value {
      list {
        s: "loc:@Rbn1b/moving_variance"
      }
    }
  }
  attr {
    key: "use_locking"
    value {
      b: true
    }
  }
  attr {
    key: "validate_shape"
    value {
      b: true
    }
  }
}
node {
  name: "Rbn1b/Rbn1b/moving_variance/biased/read"
  op: "Identity"
  input: "Rbn1b/Rbn1b/moving_variance/biased"
  attr {
    key: "T"
    value {
      type: DT_FLOAT
    }
  }
  attr {
    key: "_class"
    value {
      list {
        s: "loc:@Rbn1b/moving_variance"
      }
    }
  }
}
node {
  name: "Rbn1b/Rbn1b/moving_variance/local_step/Initializer/zeros"
  op: "Const"
  attr {
    key: "_class"
    value {
      list {
        s: "loc:@Rbn1b/moving_variance"
      }
    }
  }
  attr {
    key: "dtype"
    value {
      type: DT_FLOAT
    }
  }
  attr {
    key: "value"
    value {
      tensor {
        dtype: DT_FLOAT
        tensor_shape {
        }
        float_val: 0.0
      }
    }
  }
}
node {
  name: "Rbn1b/Rbn1b/moving_variance/local_step"
  op: "VariableV2"
  attr {
    key: "_class"
    value {
      list {
        s: "loc:@Rbn1b/moving_variance"
      }
    }
  }
  attr {
    key: "container"
    value {
      s: ""
    }
  }
  attr {
    key: "dtype"
    value {
      type: DT_FLOAT
    }
  }
  attr {
    key: "shape"
    value {
      shape {
      }
    }
  }
  attr {
    key: "shared_name"
    value {
      s: ""
    }
  }
}
node {
  name: "Rbn1b/Rbn1b/moving_variance/local_step/Assign"
  op: "Assign"
  input: "Rbn1b/Rbn1b/moving_variance/local_step"
  input: "Rbn1b/Rbn1b/moving_variance/local_step/Initializer/zeros"
  attr {
    key: "T"
    value {
      type: DT_FLOAT
    }
  }
  attr {
    key: "_class"
    value {
      list {
        s: "loc:@Rbn1b/moving_variance"
      }
    }
  }
  attr {
    key: "use_locking"
    value {
      b: true
    }
  }
  attr {
    key: "validate_shape"
    value {
      b: true
    }
  }
}
node {
  name: "Rbn1b/Rbn1b/moving_variance/local_step/read"
  op: "Identity"
  input: "Rbn1b/Rbn1b/moving_variance/local_step"
  attr {
    key: "T"
    value {
      type: DT_FLOAT
    }
  }
  attr {
    key: "_class"
    value {
      list {
        s: "loc:@Rbn1b/moving_variance"
      }
    }
  }
}
node {
  name: "Rbn1b/cond/AssignMovingAvg_1/sub"
  op: "Sub"
  input: "Rbn1b/cond/AssignMovingAvg_1/sub/Switch:1"
  input: "Rbn1b/cond/moments/Squeeze_1"
  attr {
    key: "T"
    value {
      type: DT_FLOAT
    }
  }
}
node {
  name: "Rbn1b/cond/AssignMovingAvg_1/sub/Switch"
  op: "Switch"
  input: "Rbn1b/Rbn1b/moving_variance/biased/read"
  input: "Rbn1b/cond/pred_id"
  attr {
    key: "T"
    value {
      type: DT_FLOAT
    }
  }
  attr {
    key: "_class"
    value {
      list {
        s: "loc:@Rbn1b/moving_variance"
      }
    }
  }
}
node {
  name: "Rbn1b/cond/AssignMovingAvg_1/mul"
  op: "Mul"
  input: "Rbn1b/cond/AssignMovingAvg_1/sub"
  input: "Rbn1b/cond/AssignMovingAvg_1/decay"
  attr {
    key: "T"
    value {
      type: DT_FLOAT
    }
  }
}
node {
  name: "Rbn1b/cond/AssignMovingAvg_1/AssignSub"
  op: "AssignSub"
  input: "Rbn1b/cond/AssignMovingAvg_1/AssignSub/Switch:1"
  input: "Rbn1b/cond/AssignMovingAvg_1/mul"
  attr {
    key: "T"
    value {
      type: DT_FLOAT
    }
  }
  attr {
    key: "_class"
    value {
      list {
        s: "loc:@Rbn1b/moving_variance"
      }
    }
  }
  attr {
    key: "use_locking"
    value {
      b: false
    }
  }
}
node {
  name: "Rbn1b/cond/AssignMovingAvg_1/AssignSub/Switch"
  op: "RefSwitch"
  input: "Rbn1b/Rbn1b/moving_variance/biased"
  input: "Rbn1b/cond/pred_id"
  attr {
    key: "T"
    value {
      type: DT_FLOAT
    }
  }
  attr {
    key: "_class"
    value {
      list {
        s: "loc:@Rbn1b/moving_variance"
      }
    }
  }
}
node {
  name: "Rbn1b/cond/AssignMovingAvg_1/AssignAdd/value"
  op: "Const"
  input: "^Rbn1b/cond/switch_t"
  attr {
    key: "dtype"
    value {
      type: DT_FLOAT
    }
  }
  attr {
    key: "value"
    value {
      tensor {
        dtype: DT_FLOAT
        tensor_shape {
        }
        float_val: 1.0
      }
    }
  }
}
node {
  name: "Rbn1b/cond/AssignMovingAvg_1/AssignAdd"
  op: "AssignAdd"
  input: "Rbn1b/cond/AssignMovingAvg_1/AssignAdd/Switch:1"
  input: "Rbn1b/cond/AssignMovingAvg_1/AssignAdd/value"
  attr {
    key: "T"
    value {
      type: DT_FLOAT
    }
  }
  attr {
    key: "_class"
    value {
      list {
        s: "loc:@Rbn1b/moving_variance"
      }
    }
  }
  attr {
    key: "use_locking"
    value {
      b: false
    }
  }
}
node {
  name: "Rbn1b/cond/AssignMovingAvg_1/AssignAdd/Switch"
  op: "RefSwitch"
  input: "Rbn1b/Rbn1b/moving_variance/local_step"
  input: "Rbn1b/cond/pred_id"
  attr {
    key: "T"
    value {
      type: DT_FLOAT
    }
  }
  attr {
    key: "_class"
    value {
      list {
        s: "loc:@Rbn1b/moving_variance"
      }
    }
  }
}
node {
  name: "Rbn1b/cond/AssignMovingAvg_1/sub_1/x"
  op: "Const"
  input: "^Rbn1b/cond/switch_t"
  attr {
    key: "dtype"
    value {
      type: DT_FLOAT
    }
  }
  attr {
    key: "value"
    value {
      tensor {
        dtype: DT_FLOAT
        tensor_shape {
        }
        float_val: 1.0
      }
    }
  }
}
node {
  name: "Rbn1b/cond/AssignMovingAvg_1/sub_1"
  op: "Sub"
  input: "Rbn1b/cond/AssignMovingAvg_1/sub_1/x"
  input: "Rbn1b/cond/AssignMovingAvg_1/decay"
  attr {
    key: "T"
    value {
      type: DT_FLOAT
    }
  }
}
node {
  name: "Rbn1b/cond/AssignMovingAvg_1/Pow"
  op: "Pow"
  input: "Rbn1b/cond/AssignMovingAvg_1/sub_1"
  input: "Rbn1b/cond/AssignMovingAvg_1/AssignAdd"
  attr {
    key: "T"
    value {
      type: DT_FLOAT
    }
  }
}
node {
  name: "Rbn1b/cond/AssignMovingAvg_1/sub_2/x"
  op: "Const"
  input: "^Rbn1b/cond/switch_t"
  attr {
    key: "dtype"
    value {
      type: DT_FLOAT
    }
  }
  attr {
    key: "value"
    value {
      tensor {
        dtype: DT_FLOAT
        tensor_shape {
        }
        float_val: 1.0
      }
    }
  }
}
node {
  name: "Rbn1b/cond/AssignMovingAvg_1/sub_2"
  op: "Sub"
  input: "Rbn1b/cond/AssignMovingAvg_1/sub_2/x"
  input: "Rbn1b/cond/AssignMovingAvg_1/Pow"
  attr {
    key: "T"
    value {
      type: DT_FLOAT
    }
  }
}
node {
  name: "Rbn1b/cond/AssignMovingAvg_1/truediv"
  op: "RealDiv"
  input: "Rbn1b/cond/AssignMovingAvg_1/AssignSub"
  input: "Rbn1b/cond/AssignMovingAvg_1/sub_2"
  attr {
    key: "T"
    value {
      type: DT_FLOAT
    }
  }
}
node {
  name: "Rbn1b/cond/AssignMovingAvg_1"
  op: "Assign"
  input: "Rbn1b/cond/AssignMovingAvg_1/Switch:1"
  input: "Rbn1b/cond/AssignMovingAvg_1/truediv"
  attr {
    key: "T"
    value {
      type: DT_FLOAT
    }
  }
  attr {
    key: "_class"
    value {
      list {
        s: "loc:@Rbn1b/moving_variance"
      }
    }
  }
  attr {
    key: "use_locking"
    value {
      b: true
    }
  }
  attr {
    key: "validate_shape"
    value {
      b: true
    }
  }
}
node {
  name: "Rbn1b/cond/AssignMovingAvg_1/Switch"
  op: "RefSwitch"
  input: "Rbn1b/moving_variance"
  input: "Rbn1b/cond/pred_id"
  attr {
    key: "T"
    value {
      type: DT_FLOAT
    }
  }
  attr {
    key: "_class"
    value {
      list {
        s: "loc:@Rbn1b/moving_variance"
      }
    }
  }
}
node {
  name: "Rbn1b/cond/Identity"
  op: "Identity"
  input: "Rbn1b/cond/moments/Squeeze"
  input: "^Rbn1b/cond/AssignMovingAvg"
  input: "^Rbn1b/cond/AssignMovingAvg_1"
  attr {
    key: "T"
    value {
      type: DT_FLOAT
    }
  }
}
node {
  name: "Rbn1b/cond/Identity_1"
  op: "Identity"
  input: "Rbn1b/cond/moments/Squeeze_1"
  input: "^Rbn1b/cond/AssignMovingAvg"
  input: "^Rbn1b/cond/AssignMovingAvg_1"
  attr {
    key: "T"
    value {
      type: DT_FLOAT
    }
  }
}
node {
  name: "Rbn1b/cond/Switch_1"
  op: "Switch"
  input: "Rbn1b/moving_mean/read"
  input: "Rbn1b/cond/pred_id"
  attr {
    key: "T"
    value {
      type: DT_FLOAT
    }
  }
  attr {
    key: "_class"
    value {
      list {
        s: "loc:@Rbn1b/moving_mean"
      }
    }
  }
}
node {
  name: "Rbn1b/cond/Switch_2"
  op: "Switch"
  input: "Rbn1b/moving_variance/read"
  input: "Rbn1b/cond/pred_id"
  attr {
    key: "T"
    value {
      type: DT_FLOAT
    }
  }
  attr {
    key: "_class"
    value {
      list {
        s: "loc:@Rbn1b/moving_variance"
      }
    }
  }
}
node {
  name: "Rbn1b/cond/Merge"
  op: "Merge"
  input: "Rbn1b/cond/Switch_1"
  input: "Rbn1b/cond/Identity"
  attr {
    key: "N"
    value {
      i: 2
    }
  }
  attr {
    key: "T"
    value {
      type: DT_FLOAT
    }
  }
}
node {
  name: "Rbn1b/cond/Merge_1"
  op: "Merge"
  input: "Rbn1b/cond/Switch_2"
  input: "Rbn1b/cond/Identity_1"
  attr {
    key: "N"
    value {
      i: 2
    }
  }
  attr {
    key: "T"
    value {
      type: DT_FLOAT
    }
  }
}
node {
  name: "batchnorm_1/add/y"
  op: "Const"
  attr {
    key: "dtype"
    value {
      type: DT_FLOAT
    }
  }
  attr {
    key: "value"
    value {
      tensor {
        dtype: DT_FLOAT
        tensor_shape {
        }
        float_val: 0.001
      }
    }
  }
}
node {
  name: "batchnorm_1/add"
  op: "AddV2"
  input: "Rbn1b/cond/Merge_1"
  input: "batchnorm_1/add/y"
  attr {
    key: "T"
    value {
      type: DT_FLOAT
    }
  }
}
node {
  name: "batchnorm_1/Rsqrt"
  op: "Rsqrt"
  input: "batchnorm_1/add"
  attr {
    key: "T"
    value {
      type: DT_FLOAT
    }
  }
}
node {
  name: "batchnorm_1/mul"
  op: "Mul"
  input: "batchnorm_1/Rsqrt"
  input: "Rbn1b/gamma/read"
  attr {
    key: "T"
    value {
      type: DT_FLOAT
    }
  }
}
node {
  name: "batchnorm_1/mul_1"
  op: "Mul"
  input: "add_1"
  input: "batchnorm_1/mul"
  attr {
    key: "T"
    value {
      type: DT_FLOAT
    }
  }
}
node {
  name: "batchnorm_1/mul_2"
  op: "Mul"
  input: "Rbn1b/cond/Merge"
  input: "batchnorm_1/mul"
  attr {
    key: "T"
    value {
      type: DT_FLOAT
    }
  }
}
node {
  name: "batchnorm_1/sub"
  op: "Sub"
  input: "Rbn1b/beta/read"
  input: "batchnorm_1/mul_2"
  attr {
    key: "T"
    value {
      type: DT_FLOAT
    }
  }
}
node {
  name: "batchnorm_1/add_1"
  op: "AddV2"
  input: "batchnorm_1/mul_1"
  input: "batchnorm_1/sub"
  attr {
    key: "T"
    value {
      type: DT_FLOAT
    }
  }
}
node {
  name: "Relu_1"
  op: "Relu"
  input: "batchnorm_1/add_1"
  attr {
    key: "T"
    value {
      type: DT_FLOAT
    }
  }
}
node {
  name: "Pad_1/paddings"
  op: "Const"
  attr {
    key: "dtype"
    value {
      type: DT_INT32
    }
  }
  attr {
    key: "value"
    value {
      tensor {
        dtype: DT_INT32
        tensor_shape {
          dim {
            size: 5
          }
          dim {
            size: 2
          }
        }
        tensor_content: "…"
      }
    }
  }
}
node {
  name: "Pad_1"
  op: "Pad"
  input: "Relu_1"
  input: "Pad_1/paddings"
  attr {
    key: "T"
    value {
      type: DT_FLOAT
    }
  }
  attr {
    key: "Tpaddings"
    value {
      type: DT_INT32
    }
  }
}
node {
  name: "Rconv1b/W/Initializer/random_uniform/shape"
  op: "Const"
  attr {
    key: "_class"
    value {
      list {
        s: "loc:@Rconv1b/W"
      }
    }
  }
  attr {
    key: "dtype"
    value {
      type: DT_INT32
    }
  }
  attr {
    key: "value"
    value {
      tensor {
        dtype: DT_INT32
        tensor_shape {
          dim {
            size: 5
          }
        }
        tensor_content: "\003\000\000\000\003\000\000\000\003\000\000\000@\000\000\000 \000\000\000"
      }
    }
  }
}
node {
  name: "Rconv1b/W/Initializer/random_uniform/min"
  op: "Const"
  attr {
    key: "_class"
    value {
      list {
        s: "loc:@Rconv1b/W"
      }
    }
  }
  attr {
    key: "dtype"
    value {
      type: DT_FLOAT
    }
  }
  attr {
    key: "value"
    value {
      tensor {
        dtype: DT_FLOAT
        tensor_shape {
        }
        float_val: -0.058925565
      }
    }
  }
}
node {
  name: "Rconv1b/W/Initializer/random_uniform/max"
  op: "Const"
  attr {
    key: "_class"
    value {
      list {
        s: "loc:@Rconv1b/W"
      }
    }
  }
  attr {
    key: "dtype"
    value {
      type: DT_FLOAT
    }
  }
  attr {
    key: "value"
    value {
      tensor {
        dtype: DT_FLOAT
        tensor_shape {
        }
        float_val: 0.058925565
      }
    }
  }
}
node {
  name: "Rconv1b/W/Initializer/random_uniform/RandomUniform"
  op: "RandomUniform"
  input: "Rconv1b/W/Initializer/random_uniform/shape"
  attr {
    key: "T"
    value {
      type: DT_INT32
    }
  }
  attr {
    key: "_class"
    value {
      list {
        s: "loc:@Rconv1b/W"
      }
    }
  }
  attr {
    key: "dtype"
    value {
      type: DT_FLOAT
    }
  }
  attr {
    key: "seed"
    value {
      i: 0
    }
  }
  attr {
    key: "seed2"
    value {
      i: 0
    }
  }
}
node {
  name: "Rconv1b/W/Initializer/random_uniform/sub"
  op: "Sub"
  input: "Rconv1b/W/Initializer/random_uniform/max"
  input: "Rconv1b/W/Initializer/random_uniform/min"
  attr {
    key: "T"
    value {
      type: DT_FLOAT
    }
  }
  attr {
    key: "_class"
    value {
      list {
        s: "loc:@Rconv1b/W"
      }
    }
  }
}
node {
  name: "Rconv1b/W/Initializer/random_uniform/mul"
  op: "Mul"
  input: "Rconv1b/W/Initializer/random_uniform/RandomUniform"
  input: "Rconv1b/W/Initializer/random_uniform/sub"
  attr {
    key: "T"
    value {
      type: DT_FLOAT
    }
  }
  attr {
    key: "_class"
    value {
      list {
        s: "loc:@Rconv1b/W"
      }
    }
  }
}
node {
  name: "Rconv1b/W/Initializer/random_uniform"
  op: "Add"
  input: "Rconv1b/W/Initializer/random_uniform/mul"
  input: "Rconv1b/W/Initializer/random_uniform/min"
  attr {
    key: "T"
    value {
      type: DT_FLOAT
    }
  }
  attr {
    key: "_class"
    value {
      list {
        s: "loc:@Rconv1b/W"
      }
    }
  }
}
node {
  name: "Rconv1b/W"
  op: "VariableV2"
  attr {
    key: "_class"
    value {
      list {
        s: "loc:@Rconv1b/W"
      }
    }
  }
  attr {
    key: "container"
    value {
      s: ""
    }
  }
  attr {
    key: "dtype"
    value {
      type: DT_FLOAT
    }
  }
  attr {
    key: "shape"
    value {
      shape {
        dim {
          size: 3
        }
        dim {
          size: 3
        }
        dim {
          size: 3
        }
        dim {
          size: 64
        }
        dim {
          size: 32
        }
      }
    }
  }
  attr {
    key: "shared_name"
    value {
      s: ""
    }
  }
}
node {
  name: "Rconv1b/W/Assign"
  op: "Assign"
  input: "Rconv1b/W"
  input: "Rconv1b/W/Initializer/random_uniform"
  attr {
    key: "T"
    value {
      type: DT_FLOAT
    }
  }
  attr {
    key: "_class"
    value {
      list {
        s: "loc:@Rconv1b/W"
      }
    }
  }
  attr {
    key: "use_locking"
    value {
      b: true
    }
  }
  attr {
    key: "validate_shape"
    value {
      b: true
    }
  }
}
node {
  name: "Rconv1b/W/read"
  op: "Identity"
  input: "Rconv1b/W"
  attr {
    key: "T"
    value {
      type: DT_FLOAT
    }
  }
  attr {
    key: "_class"
    value {
      list {
        s: "loc:@Rconv1b/W"
      }
    }
  }
}
node {
  name: "Rconv1b/b/Initializer/Const"
  op: "Const"
  attr {
    key: "_class"
    value {
      list {
        s: "loc:@Rconv1b/b"
      }
    }
  }
  attr {
    key: "dtype"
    value {
      type: DT_FLOAT
    }
  }
  attr {
    key: "value"
    value {
      tensor {
        dtype: DT_FLOAT
        tensor_shape {
          dim {
            size: 32
          }
        }
        float_val: 0.0
      }
    }
  }
}
node {
  name: "Rconv1b/b"
  op: "VariableV2"
  attr {
    key: "_class"
    value {
      list {
        s: "loc:@Rconv1b/b"
      }
    }
  }
  attr {
    key: "container"
    value {
      s: ""
    }
  }
  attr {
    key: "dtype"
    value {
      type: DT_FLOAT
    }
  }
  attr {
    key: "shape"
    value {
      shape {
        dim {
          size: 32
        }
      }
    }
  }
  attr {
    key: "shared_name"
    value {
      s: ""
    }
  }
}
node {
  name: "Rconv1b/b/Assign"
  op: "Assign"
  input: "Rconv1b/b"
  input: "Rconv1b/b/Initializer/Const"
  attr {
    key: "T"
    value {
      type: DT_FLOAT
    }
  }
  attr {
    key: "_class"
    value {
      list {
        s: "loc:@Rconv1b/b"
      }
    }
  }
  attr {
    key: "use_locking"
    value {
      b: true
    }
  }
  attr {
    key: "validate_shape"
    value {
      b: true
    }
  }
}
node {
  name: "Rconv1b/b/read"
  op: "Identity"
  input: "Rconv1b/b"
  attr {
    key: "T"
    value {
      type: DT_FLOAT
    }
  }
  attr {
    key: "_class"
    value {
      list {
        s: "loc:@Rconv1b/b"
      }
    }
  }
}
node {
  name: "Conv3D_2"
  op: "Conv3D"
  input: "Pad_1"
  input: "Rconv1b/W/read"
  attr {
    key: "T"
    value {
      type: DT_FLOAT
    }
  }
  attr {
    key: "data_format"
    value {
      s: "NDHWC"
    }
  }
  attr {
    key: "dilations"
    value {
      list {
        i: 1
        i: 1
        i: 1
        i: 1
        i: 1
      }
    }
  }
  attr {
    key: "padding"
    value {
      s: "VALID"
    }
  }
  attr {
    key: "strides"
    value {
      list {
        i: 1
        i: 1
        i: 1
        i: 1
        i: 1
      }
    }
  }
}
node {
  name: "add_2"
  op: "AddV2"
  input: "Conv3D_2"
  input: "Rconv1b/b/read"
  attr {
    key: "T"
    value {
      type: DT_FLOAT
    }
  }
}
node {
  name: "concat/axis"
  op: "Const"
  attr {
    key: "dtype"
    value {
      type: DT_INT32
    }
  }
  attr {
    key: "value"
    value {
      tensor {
        dtype: DT_INT32
        tensor_shape {
        }
        int_val: 4
      }
    }
  }
}
node {
  name: "concat"
  op: "ConcatV2"
  input: "add"
  input: "add_2"
  input: "concat/axis"
  attr {
    key: "N"
    value {
      i: 2
    }
  }
  attr {
    key: "T"
    value {
      type: DT_FLOAT
    }
  }
  attr {
    key: "Tidx"
    value {
      type: DT_INT32
    }
  }
}
node {
  name: "Rbn2a/beta/Initializer/Const"
  op: "Const"
  attr {
    key: "_class"
    value {
      list {
        s: "loc:@Rbn2a/beta"
      }
    }
  }
  attr {
    key: "dtype"
    value {
      type: DT_FLOAT
    }
  }
  attr {
    key: "value"
    value {
      tensor {
        dtype: DT_FLOAT
        tensor_shape {
          dim {
            size: 96
          }
        }
        float_val: 0.0
      }
    }
  }
}
node {
  name: "Rbn2a/beta"
  op: "VariableV2"
  attr {
    key: "_class"
    value {
      list {
        s: "loc:@Rbn2a/beta"
      }
    }
  }
  attr {
    key: "container"
    value {
      s: ""
    }
  }
  attr {
    key: "dtype"
    value {
      type: DT_FLOAT
    }
  }
  attr {
    key: "shape"
    value {
      shape {
        dim {
          size: 96
        }
      }
    }
  }
  attr {
    key: "shared_name"
    value {
      s: ""
    }
  }
}
node {
  name: "Rbn2a/beta/Assign"
  op: "Assign"
  input: "Rbn2a/beta"
  input: "Rbn2a/beta/Initializer/Const"
  attr {
    key: "T"
    value {
      type: DT_FLOAT
    }
  }
  attr {
    key: "_class"
    value {
      list {
        s: "loc:@Rbn2a/beta"
      }
    }
  }
  attr {
    key: "use_locking"
    value {
      b: true
    }
  }
  attr {
    key: "validate_shape"
    value {
      b: true
    }
  }
}
node {
  name: "Rbn2a/beta/read"
  op: "Identity"
  input: "Rbn2a/beta"
  attr {
    key: "T"
    value {
      type: DT_FLOAT
    }
  }
  attr {
    key: "_class"
    value {
      list {
        s: "loc:@Rbn2a/beta"
      }
    }
  }
}
node {
  name: "Rbn2a/gamma/Initializer/Const"
  op: "Const"
  attr {
    key: "_class"
    value {
      list {
        s: "loc:@Rbn2a/gamma"
      }
    }
  }
  attr {
    key: "dtype"
    value {
      type: DT_FLOAT
    }
  }
  attr {
    key: "value"
    value {
      tensor {
        dtype: DT_FLOAT
        tensor_shape {
          dim {
            size: 96
          }
        }
        float_val: 1.0
      }
    }
  }
}
node {
  name: "Rbn2a/gamma"
  op: "VariableV2"
  attr {
    key: "_class"
    value {
      list {
        s: "loc:@Rbn2a/gamma"
      }
    }
  }
  attr {
    key: "container"
    value {
      s: ""
    }
  }
  attr {
    key: "dtype"
    value {
      type: DT_FLOAT
    }
  }
  attr {
    key: "shape"
    value {
      shape {
        dim {
          size: 96
        }
      }
    }
  }
  attr {
    key: "shared_name"
    value {
      s: ""
    }
  }
}
node {
  name: "Rbn2a/gamma/Assign"
  op: "Assign"
  input: "Rbn2a/gamma"
  input: "Rbn2a/gamma/Initializer/Const"
  attr {
    key: "T"
    value {
      type: DT_FLOAT
    }
  }
  attr {
    key: "_class"
    value {
      list {
        s: "loc:@Rbn2a/gamma"
      }
    }
  }
  attr {
    key: "use_locking"
    value {
      b: true
    }
  }
  attr {
    key: "validate_shape"
    value {
      b: true
    }
  }
}
node {
  name: "Rbn2a/gamma/read"
  op: "Identity"
  input: "Rbn2a/gamma"
  attr {
    key: "T"
    value {
      type: DT_FLOAT
    }
  }
  attr {
    key: "_class"
    value {
      list {
        s: "loc:@Rbn2a/gamma"
      }
    }
  }
}
node {
  name: "Rbn2a/moving_mean/Initializer/Const"
  op: "Const"
  attr {
    key: "_class"
    value {
      list {
        s: "loc:@Rbn2a/moving_mean"
      }
    }
  }
  attr {
    key: "dtype"
    value {
      type: DT_FLOAT
    }
  }
  attr {
    key: "value"
    value {
      tensor {
        dtype: DT_FLOAT
        tensor_shape {
          dim {
            size: 96
          }
        }
        float_val: 0.0
      }
    }
  }
}
node {
  name: "Rbn2a/moving_mean"
  op: "VariableV2"
  attr {
    key: "_class"
    value {
      list {
        s: "loc:@Rbn2a/moving_mean"
      }
    }
  }
  attr {
    key: "container"
    value {
      s: ""
    }
  }
  attr {
    key: "dtype"
    value {
      type: DT_FLOAT
    }
  }
  attr {
    key: "shape"
    value {
      shape {
        dim {
          size: 96
        }
      }
    }
  }
  attr {
    key: "shared_name"
    value {
      s: ""
    }
  }
}
node {
  name: "Rbn2a/moving_mean/Assign"
  op: "Assign"
  input: "Rbn2a/moving_mean"
  input: "Rbn2a/moving_mean/Initializer/Const"
  attr {
    key: "T"
    value {
      type: DT_FLOAT
    }
  }
  attr {
    key: "_class"
    value {
      list {
        s: "loc:@Rbn2a/moving_mean"
      }
    }
  }
  attr {
    key: "use_locking"
    value {
      b: true
    }
  }
  attr {
    key: "validate_shape"
    value {
      b: true
    }
  }
}
node {
  name: "Rbn2a/moving_mean/read"
  op: "Identity"
  input: "Rbn2a/moving_mean"
  attr {
    key: "T"
    value {
      type: DT_FLOAT
    }
  }
  attr {
    key: "_class"
    value {
      list {
        s: "loc:@Rbn2a/moving_mean"
      }
    }
  }
}
node {
  name: "Rbn2a/moving_variance/Initializer/Const"
  op: "Const"
  attr {
    key: "_class"
    value {
      list {
        s: "loc:@Rbn2a/moving_variance"
      }
    }
  }
  attr {
    key: "dtype"
    value {
      type: DT_FLOAT
    }
  }
  attr {
    key: "value"
    value {
      tensor {
        dtype: DT_FLOAT
        tensor_shape {
          dim {
            size: 96
          }
        }
        float_val: 0.0
      }
    }
  }
}
node {
  name: "Rbn2a/moving_variance"
  op: "VariableV2"
  attr {
    key: "_class"
    value {
      list {
        s: "loc:@Rbn2a/moving_variance"
      }
    }
  }
  attr {
    key: "container"
    value {
      s: ""
    }
  }
  attr {
    key: "dtype"
    value {
      type: DT_FLOAT
    }
  }
  attr {
    key: "shape"
    value {
      shape {
        dim {
          size: 96
        }
      }
    }
  }
  attr {
    key: "shared_name"
    value {
      s: ""
    }
  }
}
node {
  name: "Rbn2a/moving_variance/Assign"
  op: "Assign"
  input: "Rbn2a/moving_variance"
  input: "Rbn2a/moving_variance/Initializer/Const"
  attr {
    key: "T"
    value {
      type: DT_FLOAT
    }
  }
  attr {
    key: "_class"
    value {
      list {
        s: "loc:@Rbn2a/moving_variance"
      }
    }
  }
  attr {
    key: "use_locking"
    value {
      b: true
    }
  }
  attr {
    key: "validate_shape"
    value {
      b: true
    }
  }
}
node {
  name: "Rbn2a/moving_variance/read"
  op: "Identity"
  input: "Rbn2a/moving_variance"
  attr {
    key: "T"
    value {
      type: DT_FLOAT
    }
  }
  attr {
    key: "_class"
    value {
      list {
        s: "loc:@Rbn2a/moving_variance"
      }
    }
  }
}
node {
  name: "Rbn2a/cond/Switch"
  op: "Switch"
  input: "is_train"
  input: "is_train"
  attr {
    key: "T"
    value {
      type: DT_BOOL
    }
  }
}
node {
  name: "Rbn2a/cond/switch_t"
  op: "Identity"
  input: "Rbn2a/cond/Switch:1"
  attr {
    key: "T"
    value {
      type: DT_BOOL
    }
  }
}
node {
  name: "Rbn2a/cond/switch_f"
  op: "Identity"
  input: "Rbn2a/cond/Switch"
  attr {
    key: "T"
    value {
      type: DT_BOOL
    }
  }
}
node {
  name: "Rbn2a/cond/pred_id"
  op: "Identity"
  input: "is_train"
  attr {
    key: "T"
    value {
      type: DT_BOOL
    }
  }
}
node {
  name: "Rbn2a/cond/moments/mean/reduction_indices"
  op: "Const"
  input: "^Rbn2a/cond/switch_t"
  attr {
    key: "dtype"
    value {
      type: DT_INT32
    }
  }
  attr {
    key: "value"
    value {
      tensor {
        dtype: DT_INT32
        tensor_shape {
          dim {
            size: 4
          }
        }
        tensor_content: "\000\000\000\000\001\000\000\000\002\000\000\000\003\000\000\000"
      }
    }
  }
}
node {
  name: "Rbn2a/cond/moments/mean"
  op: "Mean"
  input: "Rbn2a/cond/moments/mean/Switch:1"
  input: "Rbn2a/cond/moments/mean/reduction_indices"
  attr {
    key: "T"
    value {
      type: DT_FLOAT
    }
  }
  attr {
    key: "Tidx"
    value {
      type: DT_INT32
    }
  }
  attr {
    key: "keep_dims"
    value {
      b: true
    }
  }
}
node {
  name: "Rbn2a/cond/moments/mean/Switch"
  op: "Switch"
  input: "concat"
  input: "Rbn2a/cond/pred_id"
  attr {
    key: "T"
    value {
      type: DT_FLOAT
    }
  }
  attr {
    key: "_class"
    value {
      list {
        s: "loc:@concat"
      }
    }
  }
}
node {
  name: "Rbn2a/cond/moments/StopGradient"
  op: "StopGradient"
  input: "Rbn2a/cond/moments/mean"
  attr {
    key: "T"
    value {
      type: DT_FLOAT
    }
  }
}
node {
  name: "Rbn2a/cond/moments/SquaredDifference"
  op: "SquaredDifference"
  input: "Rbn2a/cond/moments/mean/Switch:1"
  input: "Rbn2a/cond/moments/StopGradient"
  attr {
    key: "T"
    value {
      type: DT_FLOAT
    }
  }
}
node {
  name: "Rbn2a/cond/moments/variance/reduction_indices"
  op: "Const"
  input: "^Rbn2a/cond/switch_t"
  attr {
    key: "dtype"
    value {
      type: DT_INT32
    }
  }
  attr {
    key: "value"
    value {
      tensor {
        dtype: DT_INT32
        tensor_shape {
          dim {
            size: 4
          }
        }
        tensor_content: "\000\000\000\000\001\000\000\000\002\000\000\000\003\000\000\000"
      }
    }
  }
}
node {
  name: "Rbn2a/cond/moments/variance"
  op: "Mean"
  input: "Rbn2a/cond/moments/SquaredDifference"
  input: "Rbn2a/cond/moments/variance/reduction_indices"
  attr {
    key: "T"
    value {
      type: DT_FLOAT
    }
  }
  attr {
    key: "Tidx"
    value {
      type: DT_INT32
    }
  }
  attr {
    key: "keep_dims"
    value {
      b: true
    }
  }
}
node {
  name: "Rbn2a/cond/moments/Squeeze"
  op: "Squeeze"
  input: "Rbn2a/cond/moments/mean"
  attr {
    key: "T"
    value {
      type: DT_FLOAT
    }
  }
  attr {
    key: "squeeze_dims"
    value {
      list {
        i: 0
        i: 1
        i: 2
        i: 3
      }
    }
  }
}
node {
  name: "Rbn2a/cond/moments/Squeeze_1"
  op: "Squeeze"
  input: "Rbn2a/cond/moments/variance"
  attr {
    key: "T"
    value {
      type: DT_FLOAT
    }
  }
  attr {
    key: "squeeze_dims"
    value {
      list {
        i: 0
        i: 1
        i: 2
        i: 3
      }
    }
  }
}
node {
  name: "Rbn2a/cond/AssignMovingAvg/decay"
  op: "Const"
  input: "^Rbn2a/cond/switch_t"
  attr {
    key: "dtype"
    value {
      type: DT_FLOAT
    }
  }
  attr {
    key: "value"
    value {
      tensor {
        dtype: DT_FLOAT
        tensor_shape {
        }
        float_val: 0.001
      }
    }
  }
}
node {
  name: "Rbn2a/Rbn2a/moving_mean/biased/Initializer/zeros"
  op: "Const"
  attr {
    key: "_class"
    value {
      list {
        s: "loc:@Rbn2a/moving_mean"
      }
    }
  }
  attr {
    key: "dtype"
    value {
      type: DT_FLOAT
    }
  }
  attr {
    key: "value"
    value {
      tensor {
        dtype: DT_FLOAT
        tensor_shape {
          dim {
            size: 96
          }
        }
        float_val: 0.0
      }
    }
  }
}
node {
  name: "Rbn2a/Rbn2a/moving_mean/biased"
  op: "VariableV2"
  attr {
    key: "_class"
    value {
      list {
        s: "loc:@Rbn2a/moving_mean"
      }
    }
  }
  attr {
    key: "container"
    value {
      s: ""
    }
  }
  attr {
    key: "dtype"
    value {
      type: DT_FLOAT
    }
  }
  attr {
    key: "shape"
    value {
      shape {
        dim {
          size: 96
        }
      }
    }
  }
  attr {
    key: "shared_name"
    value {
      s: ""
    }
  }
}
node {
  name: "Rbn2a/Rbn2a/moving_mean/biased/Assign"
  op: "Assign"
  input: "Rbn2a/Rbn2a/moving_mean/biased"
  input: "Rbn2a/Rbn2a/moving_mean/biased/Initializer/zeros"
  attr {
    key: "T"
    value {
      type: DT_FLOAT
    }
  }
  attr {
    key: "_class"
    value {
      list {
        s: "loc:@Rbn2a/moving_mean"
      }
    }
  }
  attr {
    key: "use_locking"
    value {
      b: true
    }
  }
  attr {
    key: "validate_shape"
    value {
      b: true
    }
  }
}
node {
  name: "Rbn2a/Rbn2a/moving_mean/biased/read"
  op: "Identity"
  input: "Rbn2a/Rbn2a/moving_mean/biased"
  attr {
    key: "T"
    value {
      type: DT_FLOAT
    }
  }
  attr {
    key: "_class"
    value {
      list {
        s: "loc:@Rbn2a/moving_mean"
      }
    }
  }
}
node {
  name: "Rbn2a/Rbn2a/moving_mean/local_step/Initializer/zeros"
  op: "Const"
  attr {
    key: "_class"
    value {
      list {
        s: "loc:@Rbn2a/moving_mean"
      }
    }
  }
  attr {
    key: "dtype"
    value {
      type: DT_FLOAT
    }
  }
  attr {
    key: "value"
    value {
      tensor {
        dtype: DT_FLOAT
        tensor_shape {
        }
        float_val: 0.0
      }
    }
  }
}
node {
  name: "Rbn2a/Rbn2a/moving_mean/local_step"
  op: "VariableV2"
  attr {
    key: "_class"
    value {
      list {
        s: "loc:@Rbn2a/moving_mean"
      }
    }
  }
  attr {
    key: "container"
    value {
      s: ""
    }
  }
  attr {
    key: "dtype"
    value {
      type: DT_FLOAT
    }
  }
  attr {
    key: "shape"
    value {
      shape {
      }
    }
  }
  attr {
    key: "shared_name"
    value {
      s: ""
    }
  }
}
node {
  name: "Rbn2a/Rbn2a/moving_mean/local_step/Assign"
  op: "Assign"
  input: "Rbn2a/Rbn2a/moving_mean/local_step"
  input: "Rbn2a/Rbn2a/moving_mean/local_step/Initializer/zeros"
  attr {
    key: "T"
    value {
      type: DT_FLOAT
    }
  }
  attr {
    key: "_class"
    value {
      list {
        s: "loc:@Rbn2a/moving_mean"
      }
    }
  }
  attr {
    key: "use_locking"
    value {
      b: true
    }
  }
  attr {
    key: "validate_shape"
    value {
      b: true
    }
  }
}
node {
  name: "Rbn2a/Rbn2a/moving_mean/local_step/read"
  op: "Identity"
  input: "Rbn2a/Rbn2a/moving_mean/local_step"
  attr {
    key: "T"
    value {
      type: DT_FLOAT
    }
  }
  attr {
    key: "_class"
    value {
      list {
        s: "loc:@Rbn2a/moving_mean"
      }
    }
  }
}
node {
  name: "Rbn2a/cond/AssignMovingAvg/sub"
  op: "Sub"
  input: "Rbn2a/cond/AssignMovingAvg/sub/Switch:1"
  input: "Rbn2a/cond/moments/Squeeze"
  attr {
    key: "T"
    value {
      type: DT_FLOAT
    }
  }
}
node {
  name: "Rbn2a/cond/AssignMovingAvg/sub/Switch"
  op: "Switch"
  input: "Rbn2a/Rbn2a/moving_mean/biased/read"
  input: "Rbn2a/cond/pred_id"
  attr {
    key: "T"
    value {
      type: DT_FLOAT
    }
  }
  attr {
    key: "_class"
    value {
      list {
        s: "loc:@Rbn2a/moving_mean"
      }
    }
  }
}
node {
  name: "Rbn2a/cond/AssignMovingAvg/mul"
  op: "Mul"
  input: "Rbn2a/cond/AssignMovingAvg/sub"
  input: "Rbn2a/cond/AssignMovingAvg/decay"
  attr {
    key: "T"
    value {
      type: DT_FLOAT
    }
  }
}
node {
  name: "Rbn2a/cond/AssignMovingAvg/AssignSub"
  op: "AssignSub"
  input: "Rbn2a/cond/AssignMovingAvg/AssignSub/Switch:1"
  input: "Rbn2a/cond/AssignMovingAvg/mul"
  attr {
    key: "T"
    value {
      type: DT_FLOAT
    }
  }
  attr {
    key: "_class"
    value {
      list {
        s: "loc:@Rbn2a/moving_mean"
      }
    }
  }
  attr {
    key: "use_locking"
    value {
      b: false
    }
  }
}
node {
  name: "Rbn2a/cond/AssignMovingAvg/AssignSub/Switch"
  op: "RefSwitch"
  input: "Rbn2a/Rbn2a/moving_mean/biased"
  input: "Rbn2a/cond/pred_id"
  attr {
    key: "T"
    value {
      type: DT_FLOAT
    }
  }
  attr {
    key: "_class"
    value {
      list {
        s: "loc:@Rbn2a/moving_mean"
      }
    }
  }
}
node {
  name: "Rbn2a/cond/AssignMovingAvg/AssignAdd/value"
  op: "Const"
  input: "^Rbn2a/cond/switch_t"
  attr {
    key: "dtype"
    value {
      type: DT_FLOAT
    }
  }
  attr {
    key: "value"
    value {
      tensor {
        dtype: DT_FLOAT
        tensor_shape {
        }
        float_val: 1.0
      }
    }
  }
}
node {
  name: "Rbn2a/cond/AssignMovingAvg/AssignAdd"
  op: "AssignAdd"
  input: "Rbn2a/cond/AssignMovingAvg/AssignAdd/Switch:1"
  input: "Rbn2a/cond/AssignMovingAvg/AssignAdd/value"
  attr {
    key: "T"
    value {
      type: DT_FLOAT
    }
  }
  attr {
    key: "_class"
    value {
      list {
        s: "loc:@Rbn2a/moving_mean"
      }
    }
  }
  attr {
    key: "use_locking"
    value {
      b: false
    }
  }
}
node {
  name: "Rbn2a/cond/AssignMovingAvg/AssignAdd/Switch"
  op: "RefSwitch"
  input: "Rbn2a/Rbn2a/moving_mean/local_step"
  input: "Rbn2a/cond/pred_id"
  attr {
    key: "T"
    value {
      type: DT_FLOAT
    }
  }
  attr {
    key: "_class"
    value {
      list {
        s: "loc:@Rbn2a/moving_mean"
      }
    }
  }
}
node {
  name: "Rbn2a/cond/AssignMovingAvg/sub_1/x"
  op: "Const"
  input: "^Rbn2a/cond/switch_t"
  attr {
    key: "dtype"
    value {
      type: DT_FLOAT
    }
  }
  attr {
    key: "value"
    value {
      tensor {
        dtype: DT_FLOAT
        tensor_shape {
        }
        float_val: 1.0
      }
    }
  }
}
node {
  name: "Rbn2a/cond/AssignMovingAvg/sub_1"
  op: "Sub"
  input: "Rbn2a/cond/AssignMovingAvg/sub_1/x"
  input: "Rbn2a/cond/AssignMovingAvg/decay"
  attr {
    key: "T"
    value {
      type: DT_FLOAT
    }
  }
}
node {
  name: "Rbn2a/cond/AssignMovingAvg/Pow"
  op: "Pow"
  input: "Rbn2a/cond/AssignMovingAvg/sub_1"
  input: "Rbn2a/cond/AssignMovingAvg/AssignAdd"
  attr {
    key: "T"
    value {
      type: DT_FLOAT
    }
  }
}
node {
  name: "Rbn2a/cond/AssignMovingAvg/sub_2/x"
  op: "Const"
  input: "^Rbn2a/cond/switch_t"
  attr {
    key: "dtype"
    value {
      type: DT_FLOAT
    }
  }
  attr {
    key: "value"
    value {
      tensor {
        dtype: DT_FLOAT
        tensor_shape {
        }
        float_val: 1.0
      }
    }
  }
}
node {
  name: "Rbn2a/cond/AssignMovingAvg/sub_2"
  op: "Sub"
  input: "Rbn2a/cond/AssignMovingAvg/sub_2/x"
  input: "Rbn2a/cond/AssignMovingAvg/Pow"
  attr {
    key: "T"
    value {
      type: DT_FLOAT
    }
  }
}
node {
  name: "Rbn2a/cond/AssignMovingAvg/truediv"
  op: "RealDiv"
  input: "Rbn2a/cond/AssignMovingAvg/AssignSub"
  input: "Rbn2a/cond/AssignMovingAvg/sub_2"
  attr {
    key: "T"
    value {
      type: DT_FLOAT
    }
  }
}
node {
  name: "Rbn2a/cond/AssignMovingAvg"
  op: "Assign"
  input: "Rbn2a/cond/AssignMovingAvg/Switch:1"
  input: "Rbn2a/cond/AssignMovingAvg/truediv"
  attr {
    key: "T"
    value {
      type: DT_FLOAT
    }
  }
  attr {
    key: "_class"
    value {
      list {
        s: "loc:@Rbn2a/moving_mean"
      }
    }
  }
  attr {
    key: "use_locking"
    value {
      b: true
    }
  }
  attr {
    key: "validate_shape"
    value {
      b: true
    }
  }
}
node {
  name: "Rbn2a/cond/AssignMovingAvg/Switch"
  op: "RefSwitch"
  input: "Rbn2a/moving_mean"
  input: "Rbn2a/cond/pred_id"
  attr {
    key: "T"
    value {
      type: DT_FLOAT
    }
  }
  attr {
    key: "_class"
    value {
      list {
        s: "loc:@Rbn2a/moving_mean"
      }
    }
  }
}
node {
  name: "Rbn2a/cond/AssignMovingAvg_1/decay"
  op: "Const"
  input: "^Rbn2a/cond/switch_t"
  attr {
    key: "dtype"
    value {
      type: DT_FLOAT
    }
  }
  attr {
    key: "value"
    value {
      tensor {
        dtype: DT_FLOAT
        tensor_shape {
        }
        float_val: 0.001
      }
    }
  }
}
node {
  name: "Rbn2a/Rbn2a/moving_variance/biased/Initializer/zeros"
  op: "Const"
  attr {
    key: "_class"
    value {
      list {
        s: "loc:@Rbn2a/moving_variance"
      }
    }
  }
  attr {
    key: "dtype"
    value {
      type: DT_FLOAT
    }
  }
  attr {
    key: "value"
    value {
      tensor {
        dtype: DT_FLOAT
        tensor_shape {
          dim {
            size: 96
          }
        }
        float_val: 0.0
      }
    }
  }
}
node {
  name: "Rbn2a/Rbn2a/moving_variance/biased"
  op: "VariableV2"
  attr {
    key: "_class"
    value {
      list {
        s: "loc:@Rbn2a/moving_variance"
      }
    }
  }
  attr {
    key: "container"
    value {
      s: ""
    }
  }
  attr {
    key: "dtype"
    value {
      type: DT_FLOAT
    }
  }
  attr {
    key: "shape"
    value {
      shape {
        dim {
          size: 96
        }
      }
    }
  }
  attr {
    key: "shared_name"
    value {
      s: ""
    }
  }
}
node {
  name: "Rbn2a/Rbn2a/moving_variance/biased/Assign"
  op: "Assign"
  input: "Rbn2a/Rbn2a/moving_variance/biased"
  input: "Rbn2a/Rbn2a/moving_variance/biased/Initializer/zeros"
  attr {
    key: "T"
    value {
      type: DT_FLOAT
    }
  }
  attr {
    key: "_class"
    value {
      list {
        s: "loc:@Rbn2a/moving_variance"
      }
    }
  }
  attr {
    key: "use_locking"
    value {
      b: true
    }
  }
  attr {
    key: "validate_shape"
    value {
      b: true
    }
  }
}
node {
  name: "Rbn2a/Rbn2a/moving_variance/biased/read"
  op: "Identity"
  input: "Rbn2a/Rbn2a/moving_variance/biased"
  attr {
    key: "T"
    value {
      type: DT_FLOAT
    }
  }
  attr {
    key: "_class"
    value {
      list {
        s: "loc:@Rbn2a/moving_variance"
      }
    }
  }
}
node {
  name: "Rbn2a/Rbn2a/moving_variance/local_step/Initializer/zeros"
  op: "Const"
  attr {
    key: "_class"
    value {
      list {
        s: "loc:@Rbn2a/moving_variance"
      }
    }
  }
  attr {
    key: "dtype"
    value {
      type: DT_FLOAT
    }
  }
  attr {
    key: "value"
    value {
      tensor {
        dtype: DT_FLOAT
        tensor_shape {
        }
        float_val: 0.0
      }
    }
  }
}
node {
  name: "Rbn2a/Rbn2a/moving_variance/local_step"
  op: "VariableV2"
  attr {
    key: "_class"
    value {
      list {
        s: "loc:@Rbn2a/moving_variance"
      }
    }
  }
  attr {
    key: "container"
    value {
      s: ""
    }
  }
  attr {
    key: "dtype"
    value {
      type: DT_FLOAT
    }
  }
  attr {
    key: "shape"
    value {
      shape {
      }
    }
  }
  attr {
    key: "shared_name"
    value {
      s: ""
    }
  }
}
node {
  name: "Rbn2a/Rbn2a/moving_variance/local_step/Assign"
  op: "Assign"
  input: "Rbn2a/Rbn2a/moving_variance/local_step"
  input: "Rbn2a/Rbn2a/moving_variance/local_step/Initializer/zeros"
  attr {
    key: "T"
    value {
      type: DT_FLOAT
    }
  }
  attr {
    key: "_class"
    value {
      list {
        s: "loc:@Rbn2a/moving_variance"
      }
    }
  }
  attr {
    key: "use_locking"
    value {
      b: true
    }
  }
  attr {
    key: "validate_shape"
    value {
      b: true
    }
  }
}
node {
  name: "Rbn2a/Rbn2a/moving_variance/local_step/read"
  op: "Identity"
  input: "Rbn2a/Rbn2a/moving_variance/local_step"
  attr {
    key: "T"
    value {
      type: DT_FLOAT
    }
  }
  attr {
    key: "_class"
    value {
      list {
        s: "loc:@Rbn2a/moving_variance"
      }
    }
  }
}
node {
  name: "Rbn2a/cond/AssignMovingAvg_1/sub"
  op: "Sub"
  input: "Rbn2a/cond/AssignMovingAvg_1/sub/Switch:1"
  input: "Rbn2a/cond/moments/Squeeze_1"
  attr {
    key: "T"
    value {
      type: DT_FLOAT
    }
  }
}
node {
  name: "Rbn2a/cond/AssignMovingAvg_1/sub/Switch"
  op: "Switch"
  input: "Rbn2a/Rbn2a/moving_variance/biased/read"
  input: "Rbn2a/cond/pred_id"
  attr {
    key: "T"
    value {
      type: DT_FLOAT
    }
  }
  attr {
    key: "_class"
    value {
      list {
        s: "loc:@Rbn2a/moving_variance"
      }
    }
  }
}
node {
  name: "Rbn2a/cond/AssignMovingAvg_1/mul"
  op: "Mul"
  input: "Rbn2a/cond/AssignMovingAvg_1/sub"
  input: "Rbn2a/cond/AssignMovingAvg_1/decay"
  attr {
    key: "T"
    value {
      type: DT_FLOAT
    }
  }
}
node {
  name: "Rbn2a/cond/AssignMovingAvg_1/AssignSub"
  op: "AssignSub"
  input: "Rbn2a/cond/AssignMovingAvg_1/AssignSub/Switch:1"
  input: "Rbn2a/cond/AssignMovingAvg_1/mul"
  attr {
    key: "T"
    value {
      type: DT_FLOAT
    }
  }
  attr {
    key: "_class"
    value {
      list {
        s: "loc:@Rbn2a/moving_variance"
      }
    }
  }
  attr {
    key: "use_locking"
    value {
      b: false
    }
  }
}
node {
  name: "Rbn2a/cond/AssignMovingAvg_1/AssignSub/Switch"
  op: "RefSwitch"
  input: "Rbn2a/Rbn2a/moving_variance/biased"
  input: "Rbn2a/cond/pred_id"
  attr {
    key: "T"
    value {
      type: DT_FLOAT
    }
  }
  attr {
    key: "_class"
    value {
      list {
        s: "loc:@Rbn2a/moving_variance"
      }
    }
  }
}
node {
  name: "Rbn2a/cond/AssignMovingAvg_1/AssignAdd/value"
  op: "Const"
  input: "^Rbn2a/cond/switch_t"
  attr {
    key: "dtype"
    value {
      type: DT_FLOAT
    }
  }
  attr {
    key: "value"
    value {
      tensor {
        dtype: DT_FLOAT
        tensor_shape {
        }
        float_val: 1.0
      }
    }
  }
}
node {
  name: "Rbn2a/cond/AssignMovingAvg_1/AssignAdd"
  op: "AssignAdd"
  input: "Rbn2a/cond/AssignMovingAvg_1/AssignAdd/Switch:1"
  input: "Rbn2a/cond/AssignMovingAvg_1/AssignAdd/value"
  attr {
    key: "T"
    value {
      type: DT_FLOAT
    }
  }
  attr {
    key: "_class"
    value {
      list {
        s: "loc:@Rbn2a/moving_variance"
      }
    }
  }
  attr {
    key: "use_locking"
    value {
      b: false
    }
  }
}
node {
  name: "Rbn2a/cond/AssignMovingAvg_1/AssignAdd/Switch"
  op: "RefSwitch"
  input: "Rbn2a/Rbn2a/moving_variance/local_step"
  input: "Rbn2a/cond/pred_id"
  attr {
    key: "T"
    value {
      type: DT_FLOAT
    }
  }
  attr {
    key: "_class"
    value {
      list {
        s: "loc:@Rbn2a/moving_variance"
      }
    }
  }
}
node {
  name: "Rbn2a/cond/AssignMovingAvg_1/sub_1/x"
  op: "Const"
  input: "^Rbn2a/cond/switch_t"
  attr {
    key: "dtype"
    value {
      type: DT_FLOAT
    }
  }
  attr {
    key: "value"
    value {
      tensor {
        dtype: DT_FLOAT
        tensor_shape {
        }
        float_val: 1.0
      }
    }
  }
}
node {
  name: "Rbn2a/cond/AssignMovingAvg_1/sub_1"
  op: "Sub"
  input: "Rbn2a/cond/AssignMovingAvg_1/sub_1/x"
  input: "Rbn2a/cond/AssignMovingAvg_1/decay"
  attr {
    key: "T"
    value {
      type: DT_FLOAT
    }
  }
}
node {
  name: "Rbn2a/cond/AssignMovingAvg_1/Pow"
  op: "Pow"
  input: "Rbn2a/cond/AssignMovingAvg_1/sub_1"
  input: "Rbn2a/cond/AssignMovingAvg_1/AssignAdd"
  attr {
    key: "T"
    value {
      type: DT_FLOAT
    }
  }
}
node {
  name: "Rbn2a/cond/AssignMovingAvg_1/sub_2/x"
  op: "Const"
  input: "^Rbn2a/cond/switch_t"
  attr {
    key: "dtype"
    value {
      type: DT_FLOAT
    }
  }
  attr {
    key: "value"
    value {
      tensor {
        dtype: DT_FLOAT
        tensor_shape {
        }
        float_val: 1.0
      }
    }
  }
}
node {
  name: "Rbn2a/cond/AssignMovingAvg_1/sub_2"
  op: "Sub"
  input: "Rbn2a/cond/AssignMovingAvg_1/sub_2/x"
  input: "Rbn2a/cond/AssignMovingAvg_1/Pow"
  attr {
    key: "T"
    value {
      type: DT_FLOAT
    }
  }
}
node {
  name: "Rbn2a/cond/AssignMovingAvg_1/truediv"
  op: "RealDiv"
  input: "Rbn2a/cond/AssignMovingAvg_1/AssignSub"
  input: "Rbn2a/cond/AssignMovingAvg_1/sub_2"
  attr {
    key: "T"
    value {
      type: DT_FLOAT
    }
  }
}
node {
  name: "Rbn2a/cond/AssignMovingAvg_1"
  op: "Assign"
  input: "Rbn2a/cond/AssignMovingAvg_1/Switch:1"
  input: "Rbn2a/cond/AssignMovingAvg_1/truediv"
  attr {
    key: "T"
    value {
      type: DT_FLOAT
    }
  }
  attr {
    key: "_class"
    value {
      list {
        s: "loc:@Rbn2a/moving_variance"
      }
    }
  }
  attr {
    key: "use_locking"
    value {
      b: true
    }
  }
  attr {
    key: "validate_shape"
    value {
      b: true
    }
  }
}
node {
  name: "Rbn2a/cond/AssignMovingAvg_1/Switch"
  op: "RefSwitch"
  input: "Rbn2a/moving_variance"
  input: "Rbn2a/cond/pred_id"
  attr {
    key: "T"
    value {
      type: DT_FLOAT
    }
  }
  attr {
    key: "_class"
    value {
      list {
        s: "loc:@Rbn2a/moving_variance"
      }
    }
  }
}
node {
  name: "Rbn2a/cond/Identity"
  op: "Identity"
  input: "Rbn2a/cond/moments/Squeeze"
  input: "^Rbn2a/cond/AssignMovingAvg"
  input: "^Rbn2a/cond/AssignMovingAvg_1"
  attr {
    key: "T"
    value {
      type: DT_FLOAT
    }
  }
}
node {
  name: "Rbn2a/cond/Identity_1"
  op: "Identity"
  input: "Rbn2a/cond/moments/Squeeze_1"
  input: "^Rbn2a/cond/AssignMovingAvg"
  input: "^Rbn2a/cond/AssignMovingAvg_1"
  attr {
    key: "T"
    value {
      type: DT_FLOAT
    }
  }
}
node {
  name: "Rbn2a/cond/Switch_1"
  op: "Switch"
  input: "Rbn2a/moving_mean/read"
  input: "Rbn2a/cond/pred_id"
  attr {
    key: "T"
    value {
      type: DT_FLOAT
    }
  }
  attr {
    key: "_class"
    value {
      list {
        s: "loc:@Rbn2a/moving_mean"
      }
    }
  }
}
node {
  name: "Rbn2a/cond/Switch_2"
  op: "Switch"
  input: "Rbn2a/moving_variance/read"
  input: "Rbn2a/cond/pred_id"
  attr {
    key: "T"
    value {
      type: DT_FLOAT
    }
  }
  attr {
    key: "_class"
    value {
      list {
        s: "loc:@Rbn2a/moving_variance"
      }
    }
  }
}
node {
  name: "Rbn2a/cond/Merge"
  op: "Merge"
  input: "Rbn2a/cond/Switch_1"
  input: "Rbn2a/cond/Identity"
  attr {
    key: "N"
    value {
      i: 2
    }
  }
  attr {
    key: "T"
    value {
      type: DT_FLOAT
    }
  }
}
node {
  name: "Rbn2a/cond/Merge_1"
  op: "Merge"
  input: "Rbn2a/cond/Switch_2"
  input: "Rbn2a/cond/Identity_1"
  attr {
    key: "N"
    value {
      i: 2
    }
  }
  attr {
    key: "T"
    value {
      type: DT_FLOAT
    }
  }
}
node {
  name: "batchnorm_2/add/y"
  op: "Const"
  attr {
    key: "dtype"
    value {
      type: DT_FLOAT
    }
  }
  attr {
    key: "value"
    value {
      tensor {
        dtype: DT_FLOAT
        tensor_shape {
        }
        float_val: 0.001
      }
    }
  }
}
node {
  name: "batchnorm_2/add"
  op: "AddV2"
  input: "Rbn2a/cond/Merge_1"
  input: "batchnorm_2/add/y"
  attr {
    key: "T"
    value {
      type: DT_FLOAT
    }
  }
}
node {
  name: "batchnorm_2/Rsqrt"
  op: "Rsqrt"
  input: "batchnorm_2/add"
  attr {
    key: "T"
    value {
      type: DT_FLOAT
    }
  }
}
node {
  name: "batchnorm_2/mul"
  op: "Mul"
  input: "batchnorm_2/Rsqrt"
  input: "Rbn2a/gamma/read"
  attr {
    key: "T"
    value {
      type: DT_FLOAT
    }
  }
}
node {
  name: "batchnorm_2/mul_1"
  op: "Mul"
  input: "concat"
  input: "batchnorm_2/mul"
  attr {
    key: "T"
    value {
      type: DT_FLOAT
    }
  }
}
node {
  name: "batchnorm_2/mul_2"
  op: "Mul"
  input: "Rbn2a/cond/Merge"
  input: "batchnorm_2/mul"
  attr {
    key: "T"
    value {
      type: DT_FLOAT
    }
  }
}
node {
  name: "batchnorm_2/sub"
  op: "Sub"
  input: "Rbn2a/beta/read"
  input: "batchnorm_2/mul_2"
  attr {
    key: "T"
    value {
      type: DT_FLOAT
    }
  }
}
node {
  name: "batchnorm_2/add_1"
  op: "AddV2"
  input: "batchnorm_2/mul_1"
  input: "batchnorm_2/sub"
  attr {
    key: "T"
    value {
      type: DT_FLOAT
    }
  }
}
node {
  name: "Relu_2"
  op: "Relu"
  input: "batchnorm_2/add_1"
  attr {
    key: "T"
    value {
      type: DT_FLOAT
    }
  }
}
node {
  name: "Rconv2a/W/Initializer/random_uniform/shape"
  op: "Const"
  attr {
    key: "_class"
    value {
      list {
        s: "loc:@Rconv2a/W"
      }
    }
  }
  attr {
    key: "dtype"
    value {
      type: DT_INT32
    }
  }
  attr {
    key: "value"
    value {
      tensor {
        dtype: DT_INT32
        tensor_shape {
          dim {
            size: 5
          }
        }
        tensor_content: "\001\000\000\000\001\000\000\000\001\000\000\000`\000\000\000`\000\000\000"
      }
    }
  }
}
node {
  name: "Rconv2a/W/Initializer/random_uniform/min"
  op: "Const"
  attr {
    key: "_class"
    value {
      list {
        s: "loc:@Rconv2a/W"
      }
    }
  }
  attr {
    key: "dtype"
    value {
      type: DT_FLOAT
    }
  }
  attr {
    key: "value"
    value {
      tensor {
        dtype: DT_FLOAT
        tensor_shape {
        }
        float_val: -0.25
      }
    }
  }
}
node {
  name: "Rconv2a/W/Initializer/random_uniform/max"
  op: "Const"
  attr {
    key: "_class"
    value {
      list {
        s: "loc:@Rconv2a/W"
      }
    }
  }
  attr {
    key: "dtype"
    value {
      type: DT_FLOAT
    }
  }
  attr {
    key: "value"
    value {
      tensor {
        dtype: DT_FLOAT
        tensor_shape {
        }
        float_val: 0.25
      }
    }
  }
}
node {
  name: "Rconv2a/W/Initializer/random_uniform/RandomUniform"
  op: "RandomUniform"
  input: "Rconv2a/W/Initializer/random_uniform/shape"
  attr {
    key: "T"
    value {
      type: DT_INT32
    }
  }
  attr {
    key: "_class"
    value {
      list {
        s: "loc:@Rconv2a/W"
      }
    }
  }
  attr {
    key: "dtype"
    value {
      type: DT_FLOAT
    }
  }
  attr {
    key: "seed"
    value {
      i: 0
    }
  }
  attr {
    key: "seed2"
    value {
      i: 0
    }
  }
}
node {
  name: "Rconv2a/W/Initializer/random_uniform/sub"
  op: "Sub"
  input: "Rconv2a/W/Initializer/random_uniform/max"
  input: "Rconv2a/W/Initializer/random_uniform/min"
  attr {
    key: "T"
    value {
      type: DT_FLOAT
    }
  }
  attr {
    key: "_class"
    value {
      list {
        s: "loc:@Rconv2a/W"
      }
    }
  }
}
node {
  name: "Rconv2a/W/Initializer/random_uniform/mul"
  op: "Mul"
  input: "Rconv2a/W/Initializer/random_uniform/RandomUniform"
  input: "Rconv2a/W/Initializer/random_uniform/sub"
  attr {
    key: "T"
    value {
      type: DT_FLOAT
    }
  }
  attr {
    key: "_class"
    value {
      list {
        s: "loc:@Rconv2a/W"
      }
    }
  }
}
node {
  name: "Rconv2a/W/Initializer/random_uniform"
  op: "Add"
  input: "Rconv2a/W/Initializer/random_uniform/mul"
  input: "Rconv2a/W/Initializer/random_uniform/min"
  attr {
    key: "T"
    value {
      type: DT_FLOAT
    }
  }
  attr {
    key: "_class"
    value {
      list {
        s: "loc:@Rconv2a/W"
      }
    }
  }
}
node {
  name: "Rconv2a/W"
  op: "VariableV2"
  attr {
    key: "_class"
    value {
      list {
        s: "loc:@Rconv2a/W"
      }
    }
  }
  attr {
    key: "container"
    value {
      s: ""
    }
  }
  attr {
    key: "dtype"
    value {
      type: DT_FLOAT
    }
  }
  attr {
    key: "shape"
    value {
      shape {
        dim {
          size: 1
        }
        dim {
          size: 1
        }
        dim {
          size: 1
        }
        dim {
          size: 96
        }
        dim {
          size: 96
        }
      }
    }
  }
  attr {
    key: "shared_name"
    value {
      s: ""
    }
  }
}
node {
  name: "Rconv2a/W/Assign"
  op: "Assign"
  input: "Rconv2a/W"
  input: "Rconv2a/W/Initializer/random_uniform"
  attr {
    key: "T"
    value {
      type: DT_FLOAT
    }
  }
  attr {
    key: "_class"
    value {
      list {
        s: "loc:@Rconv2a/W"
      }
    }
  }
  attr {
    key: "use_locking"
    value {
      b: true
    }
  }
  attr {
    key: "validate_shape"
    value {
      b: true
    }
  }
}
node {
  name: "Rconv2a/W/read"
  op: "Identity"
  input: "Rconv2a/W"
  attr {
    key: "T"
    value {
      type: DT_FLOAT
    }
  }
  attr {
    key: "_class"
    value {
      list {
        s: "loc:@Rconv2a/W"
      }
    }
  }
}
node {
  name: "Rconv2a/b/Initializer/Const"
  op: "Const"
  attr {
    key: "_class"
    value {
      list {
        s: "loc:@Rconv2a/b"
      }
    }
  }
  attr {
    key: "dtype"
    value {
      type: DT_FLOAT
    }
  }
  attr {
    key: "value"
    value {
      tensor {
        dtype: DT_FLOAT
        tensor_shape {
          dim {
            size: 96
          }
        }
        float_val: 0.0
      }
    }
  }
}
node {
  name: "Rconv2a/b"
  op: "VariableV2"
  attr {
    key: "_class"
    value {
      list {
        s: "loc:@Rconv2a/b"
      }
    }
  }
  attr {
    key: "container"
    value {
      s: ""
    }
  }
  attr {
    key: "dtype"
    value {
      type: DT_FLOAT
    }
  }
  attr {
    key: "shape"
    value {
      shape {
        dim {
          size: 96
        }
      }
    }
  }
  attr {
    key: "shared_name"
    value {
      s: ""
    }
  }
}
node {
  name: "Rconv2a/b/Assign"
  op: "Assign"
  input: "Rconv2a/b"
  input: "Rconv2a/b/Initializer/Const"
  attr {
    key: "T"
    value {
      type: DT_FLOAT
    }
  }
  attr {
    key: "_class"
    value {
      list {
        s: "loc:@Rconv2a/b"
      }
    }
  }
  attr {
    key: "use_locking"
    value {
      b: true
    }
  }
  attr {
    key: "validate_shape"
    value {
      b: true
    }
  }
}
node {
  name: "Rconv2a/b/read"
  op: "Identity"
  input: "Rconv2a/b"
  attr {
    key: "T"
    value {
      type: DT_FLOAT
    }
  }
  attr {
    key: "_class"
    value {
      list {
        s: "loc:@Rconv2a/b"
      }
    }
  }
}
node {
  name: "Conv3D_3"
  op: "Conv3D"
  input: "Relu_2"
  input: "Rconv2a/W/read"
  attr {
    key: "T"
    value {
      type: DT_FLOAT
    }
  }
  attr {
    key: "data_format"
    value {
      s: "NDHWC"
    }
  }
  attr {
    key: "dilations"
    value {
      list {
        i: 1
        i: 1
        i: 1
        i: 1
        i: 1
      }
    }
  }
  attr {
    key: "padding"
    value {
      s: "VALID"
    }
  }
  attr {
    key: "strides"
    value {
      list {
        i: 1
        i: 1
        i: 1
        i: 1
        i: 1
      }
    }
  }
}
node {
  name: "add_3"
  op: "AddV2"
  input: "Conv3D_3"
  input: "Rconv2a/b/read"
  attr {
    key: "T"
    value {
      type: DT_FLOAT
    }
  }
}
node {
  name: "Rbn2b/beta/Initializer/Const"
  op: "Const"
  attr {
    key: "_class"
    value {
      list {
        s: "loc:@Rbn2b/beta"
      }
    }
  }
  attr {
    key: "dtype"
    value {
      type: DT_FLOAT
    }
  }
  attr {
    key: "value"
    value {
      tensor {
        dtype: DT_FLOAT
        tensor_shape {
          dim {
            size: 96
          }
        }
        float_val: 0.0
      }
    }
  }
}
node {
  name: "Rbn2b/beta"
  op: "VariableV2"
  attr {
    key: "_class"
    value {
      list {
        s: "loc:@Rbn2b/beta"
      }
    }
  }
  attr {
    key: "container"
    value {
      s: ""
    }
  }
  attr {
    key: "dtype"
    value {
      type: DT_FLOAT
    }
  }
  attr {
    key: "shape"
    value {
      shape {
        dim {
          size: 96
        }
      }
    }
  }
  attr {
    key: "shared_name"
    value {
      s: ""
    }
  }
}
node {
  name: "Rbn2b/beta/Assign"
  op: "Assign"
  input: "Rbn2b/beta"
  input: "Rbn2b/beta/Initializer/Const"
  attr {
    key: "T"
    value {
      type: DT_FLOAT
    }
  }
  attr {
    key: "_class"
    value {
      list {
        s: "loc:@Rbn2b/beta"
      }
    }
  }
  attr {
    key: "use_locking"
    value {
      b: true
    }
  }
  attr {
    key: "validate_shape"
    value {
      b: true
    }
  }
}
node {
  name: "Rbn2b/beta/read"
  op: "Identity"
  input: "Rbn2b/beta"
  attr {
    key: "T"
    value {
      type: DT_FLOAT
    }
  }
  attr {
    key: "_class"
    value {
      list {
        s: "loc:@Rbn2b/beta"
      }
    }
  }
}
node {
  name: "Rbn2b/gamma/Initializer/Const"
  op: "Const"
  attr {
    key: "_class"
    value {
      list {
        s: "loc:@Rbn2b/gamma"
      }
    }
  }
  attr {
    key: "dtype"
    value {
      type: DT_FLOAT
    }
  }
  attr {
    key: "value"
    value {
      tensor {
        dtype: DT_FLOAT
        tensor_shape {
          dim {
            size: 96
          }
        }
        float_val: 1.0
      }
    }
  }
}
node {
  name: "Rbn2b/gamma"
  op: "VariableV2"
  attr {
    key: "_class"
    value {
      list {
        s: "loc:@Rbn2b/gamma"
      }
    }
  }
  attr {
    key: "container"
    value {
      s: ""
    }
  }
  attr {
    key: "dtype"
    value {
      type: DT_FLOAT
    }
  }
  attr {
    key: "shape"
    value {
      shape {
        dim {
          size: 96
        }
      }
    }
  }
  attr {
    key: "shared_name"
    value {
      s: ""
    }
  }
}
node {
  name: "Rbn2b/gamma/Assign"
  op: "Assign"
  input: "Rbn2b/gamma"
  input: "Rbn2b/gamma/Initializer/Const"
  attr {
    key: "T"
    value {
      type: DT_FLOAT
    }
  }
  attr {
    key: "_class"
    value {
      list {
        s: "loc:@Rbn2b/gamma"
      }
    }
  }
  attr {
    key: "use_locking"
    value {
      b: true
    }
  }
  attr {
    key: "validate_shape"
    value {
      b: true
    }
  }
}
node {
  name: "Rbn2b/gamma/read"
  op: "Identity"
  input: "Rbn2b/gamma"
  attr {
    key: "T"
    value {
      type: DT_FLOAT
    }
  }
  attr {
    key: "_class"
    value {
      list {
        s: "loc:@Rbn2b/gamma"
      }
    }
  }
}
node {
  name: "Rbn2b/moving_mean/Initializer/Const"
  op: "Const"
  attr {
    key: "_class"
    value {
      list {
        s: "loc:@Rbn2b/moving_mean"
      }
    }
  }
  attr {
    key: "dtype"
    value {
      type: DT_FLOAT
    }
  }
  attr {
    key: "value"
    value {
      tensor {
        dtype: DT_FLOAT
        tensor_shape {
          dim {
            size: 96
          }
        }
        float_val: 0.0
      }
    }
  }
}
node {
  name: "Rbn2b/moving_mean"
  op: "VariableV2"
  attr {
    key: "_class"
    value {
      list {
        s: "loc:@Rbn2b/moving_mean"
      }
    }
  }
  attr {
    key: "container"
    value {
      s: ""
    }
  }
  attr {
    key: "dtype"
    value {
      type: DT_FLOAT
    }
  }
  attr {
    key: "shape"
    value {
      shape {
        dim {
          size: 96
        }
      }
    }
  }
  attr {
    key: "shared_name"
    value {
      s: ""
    }
  }
}
node {
  name: "Rbn2b/moving_mean/Assign"
  op: "Assign"
  input: "Rbn2b/moving_mean"
  input: "Rbn2b/moving_mean/Initializer/Const"
  attr {
    key: "T"
    value {
      type: DT_FLOAT
    }
  }
  attr {
    key: "_class"
    value {
      list {
        s: "loc:@Rbn2b/moving_mean"
      }
    }
  }
  attr {
    key: "use_locking"
    value {
      b: true
    }
  }
  attr {
    key: "validate_shape"
    value {
      b: true
    }
  }
}
node {
  name: "Rbn2b/moving_mean/read"
  op: "Identity"
  input: "Rbn2b/moving_mean"
  attr {
    key: "T"
    value {
      type: DT_FLOAT
    }
  }
  attr {
    key: "_class"
    value {
      list {
        s: "loc:@Rbn2b/moving_mean"
      }
    }
  }
}
node {
  name: "Rbn2b/moving_variance/Initializer/Const"
  op: "Const"
  attr {
    key: "_class"
    value {
      list {
        s: "loc:@Rbn2b/moving_variance"
      }
    }
  }
  attr {
    key: "dtype"
    value {
      type: DT_FLOAT
    }
  }
  attr {
    key: "value"
    value {
      tensor {
        dtype: DT_FLOAT
        tensor_shape {
          dim {
            size: 96
          }
        }
        float_val: 0.0
      }
    }
  }
}
node {
  name: "Rbn2b/moving_variance"
  op: "VariableV2"
  attr {
    key: "_class"
    value {
      list {
        s: "loc:@Rbn2b/moving_variance"
      }
    }
  }
  attr {
    key: "container"
    value {
      s: ""
    }
  }
  attr {
    key: "dtype"
    value {
      type: DT_FLOAT
    }
  }
  attr {
    key: "shape"
    value {
      shape {
        dim {
          size: 96
        }
      }
    }
  }
  attr {
    key: "shared_name"
    value {
      s: ""
    }
  }
}
node {
  name: "Rbn2b/moving_variance/Assign"
  op: "Assign"
  input: "Rbn2b/moving_variance"
  input: "Rbn2b/moving_variance/Initializer/Const"
  attr {
    key: "T"
    value {
      type: DT_FLOAT
    }
  }
  attr {
    key: "_class"
    value {
      list {
        s: "loc:@Rbn2b/moving_variance"
      }
    }
  }
  attr {
    key: "use_locking"
    value {
      b: true
    }
  }
  attr {
    key: "validate_shape"
    value {
      b: true
    }
  }
}
node {
  name: "Rbn2b/moving_variance/read"
  op: "Identity"
  input: "Rbn2b/moving_variance"
  attr {
    key: "T"
    value {
      type: DT_FLOAT
    }
  }
  attr {
    key: "_class"
    value {
      list {
        s: "loc:@Rbn2b/moving_variance"
      }
    }
  }
}
node {
  name: "Rbn2b/cond/Switch"
  op: "Switch"
  input: "is_train"
  input: "is_train"
  attr {
    key: "T"
    value {
      type: DT_BOOL
    }
  }
}
node {
  name: "Rbn2b/cond/switch_t"
  op: "Identity"
  input: "Rbn2b/cond/Switch:1"
  attr {
    key: "T"
    value {
      type: DT_BOOL
    }
  }
}
node {
  name: "Rbn2b/cond/switch_f"
  op: "Identity"
  input: "Rbn2b/cond/Switch"
  attr {
    key: "T"
    value {
      type: DT_BOOL
    }
  }
}
node {
  name: "Rbn2b/cond/pred_id"
  op: "Identity"
  input: "is_train"
  attr {
    key: "T"
    value {
      type: DT_BOOL
    }
  }
}
node {
  name: "Rbn2b/cond/moments/mean/reduction_indices"
  op: "Const"
  input: "^Rbn2b/cond/switch_t"
  attr {
    key: "dtype"
    value {
      type: DT_INT32
    }
  }
  attr {
    key: "value"
    value {
      tensor {
        dtype: DT_INT32
        tensor_shape {
          dim {
            size: 4
          }
        }
        tensor_content: "\000\000\000\000\001\000\000\000\002\000\000\000\003\000\000\000"
      }
    }
  }
}
node {
  name: "Rbn2b/cond/moments/mean"
  op: "Mean"
  input: "Rbn2b/cond/moments/mean/Switch:1"
  input: "Rbn2b/cond/moments/mean/reduction_indices"
  attr {
    key: "T"
    value {
      type: DT_FLOAT
    }
  }
  attr {
    key: "Tidx"
    value {
      type: DT_INT32
    }
  }
  attr {
    key: "keep_dims"
    value {
      b: true
    }
  }
}
node {
  name: "Rbn2b/cond/moments/mean/Switch"
  op: "Switch"
  input: "add_3"
  input: "Rbn2b/cond/pred_id"
  attr {
    key: "T"
    value {
      type: DT_FLOAT
    }
  }
  attr {
    key: "_class"
    value {
      list {
        s: "loc:@add_3"
      }
    }
  }
}
node {
  name: "Rbn2b/cond/moments/StopGradient"
  op: "StopGradient"
  input: "Rbn2b/cond/moments/mean"
  attr {
    key: "T"
    value {
      type: DT_FLOAT
    }
  }
}
node {
  name: "Rbn2b/cond/moments/SquaredDifference"
  op: "SquaredDifference"
  input: "Rbn2b/cond/moments/mean/Switch:1"
  input: "Rbn2b/cond/moments/StopGradient"
  attr {
    key: "T"
    value {
      type: DT_FLOAT
    }
  }
}
node {
  name: "Rbn2b/cond/moments/variance/reduction_indices"
  op: "Const"
  input: "^Rbn2b/cond/switch_t"
  attr {
    key: "dtype"
    value {
      type: DT_INT32
    }
  }
  attr {
    key: "value"
    value {
      tensor {
        dtype: DT_INT32
        tensor_shape {
          dim {
            size: 4
          }
        }
        tensor_content: "\000\000\000\000\001\000\000\000\002\000\000\000\003\000\000\000"
      }
    }
  }
}
node {
  name: "Rbn2b/cond/moments/variance"
  op: "Mean"
  input: "Rbn2b/cond/moments/SquaredDifference"
  input: "Rbn2b/cond/moments/variance/reduction_indices"
  attr {
    key: "T"
    value {
      type: DT_FLOAT
    }
  }
  attr {
    key: "Tidx"
    value {
      type: DT_INT32
    }
  }
  attr {
    key: "keep_dims"
    value {
      b: true
    }
  }
}
node {
  name: "Rbn2b/cond/moments/Squeeze"
  op: "Squeeze"
  input: "Rbn2b/cond/moments/mean"
  attr {
    key: "T"
    value {
      type: DT_FLOAT
    }
  }
  attr {
    key: "squeeze_dims"
    value {
      list {
        i: 0
        i: 1
        i: 2
        i: 3
      }
    }
  }
}
node {
  name: "Rbn2b/cond/moments/Squeeze_1"
  op: "Squeeze"
  input: "Rbn2b/cond/moments/variance"
  attr {
    key: "T"
    value {
      type: DT_FLOAT
    }
  }
  attr {
    key: "squeeze_dims"
    value {
      list {
        i: 0
        i: 1
        i: 2
        i: 3
      }
    }
  }
}
node {
  name: "Rbn2b/cond/AssignMovingAvg/decay"
  op: "Const"
  input: "^Rbn2b/cond/switch_t"
  attr {
    key: "dtype"
    value {
      type: DT_FLOAT
    }
  }
  attr {
    key: "value"
    value {
      tensor {
        dtype: DT_FLOAT
        tensor_shape {
        }
        float_val: 0.001
      }
    }
  }
}
node {
  name: "Rbn2b/Rbn2b/moving_mean/biased/Initializer/zeros"
  op: "Const"
  attr {
    key: "_class"
    value {
      list {
        s: "loc:@Rbn2b/moving_mean"
      }
    }
  }
  attr {
    key: "dtype"
    value {
      type: DT_FLOAT
    }
  }
  attr {
    key: "value"
    value {
      tensor {
        dtype: DT_FLOAT
        tensor_shape {
          dim {
            size: 96
          }
        }
        float_val: 0.0
      }
    }
  }
}
node {
  name: "Rbn2b/Rbn2b/moving_mean/biased"
  op: "VariableV2"
  attr {
    key: "_class"
    value {
      list {
        s: "loc:@Rbn2b/moving_mean"
      }
    }
  }
  attr {
    key: "container"
    value {
      s: ""
    }
  }
  attr {
    key: "dtype"
    value {
      type: DT_FLOAT
    }
  }
  attr {
    key: "shape"
    value {
      shape {
        dim {
          size: 96
        }
      }
    }
  }
  attr {
    key: "shared_name"
    value {
      s: ""
    }
  }
}
node {
  name: "Rbn2b/Rbn2b/moving_mean/biased/Assign"
  op: "Assign"
  input: "Rbn2b/Rbn2b/moving_mean/biased"
  input: "Rbn2b/Rbn2b/moving_mean/biased/Initializer/zeros"
  attr {
    key: "T"
    value {
      type: DT_FLOAT
    }
  }
  attr {
    key: "_class"
    value {
      list {
        s: "loc:@Rbn2b/moving_mean"
      }
    }
  }
  attr {
    key: "use_locking"
    value {
      b: true
    }
  }
  attr {
    key: "validate_shape"
    value {
      b: true
    }
  }
}
node {
  name: "Rbn2b/Rbn2b/moving_mean/biased/read"
  op: "Identity"
  input: "Rbn2b/Rbn2b/moving_mean/biased"
  attr {
    key: "T"
    value {
      type: DT_FLOAT
    }
  }
  attr {
    key: "_class"
    value {
      list {
        s: "loc:@Rbn2b/moving_mean"
      }
    }
  }
}
node {
  name: "Rbn2b/Rbn2b/moving_mean/local_step/Initializer/zeros"
  op: "Const"
  attr {
    key: "_class"
    value {
      list {
        s: "loc:@Rbn2b/moving_mean"
      }
    }
  }
  attr {
    key: "dtype"
    value {
      type: DT_FLOAT
    }
  }
  attr {
    key: "value"
    value {
      tensor {
        dtype: DT_FLOAT
        tensor_shape {
        }
        float_val: 0.0
      }
    }
  }
}
node {
  name: "Rbn2b/Rbn2b/moving_mean/local_step"
  op: "VariableV2"
  attr {
    key: "_class"
    value {
      list {
        s: "loc:@Rbn2b/moving_mean"
      }
    }
  }
  attr {
    key: "container"
    value {
      s: ""
    }
  }
  attr {
    key: "dtype"
    value {
      type: DT_FLOAT
    }
  }
  attr {
    key: "shape"
    value {
      shape {
      }
    }
  }
  attr {
    key: "shared_name"
    value {
      s: ""
    }
  }
}
node {
  name: "Rbn2b/Rbn2b/moving_mean/local_step/Assign"
  op: "Assign"
  input: "Rbn2b/Rbn2b/moving_mean/local_step"
  input: "Rbn2b/Rbn2b/moving_mean/local_step/Initializer/zeros"
  attr {
    key: "T"
    value {
      type: DT_FLOAT
    }
  }
  attr {
    key: "_class"
    value {
      list {
        s: "loc:@Rbn2b/moving_mean"
      }
    }
  }
  attr {
    key: "use_locking"
    value {
      b: true
    }
  }
  attr {
    key: "validate_shape"
    value {
      b: true
    }
  }
}
node {
  name: "Rbn2b/Rbn2b/moving_mean/local_step/read"
  op: "Identity"
  input: "Rbn2b/Rbn2b/moving_mean/local_step"
  attr {
    key: "T"
    value {
      type: DT_FLOAT
    }
  }
  attr {
    key: "_class"
    value {
      list {
        s: "loc:@Rbn2b/moving_mean"
      }
    }
  }
}
node {
  name: "Rbn2b/cond/AssignMovingAvg/sub"
  op: "Sub"
  input: "Rbn2b/cond/AssignMovingAvg/sub/Switch:1"
  input: "Rbn2b/cond/moments/Squeeze"
  attr {
    key: "T"
    value {
      type: DT_FLOAT
    }
  }
}
node {
  name: "Rbn2b/cond/AssignMovingAvg/sub/Switch"
  op: "Switch"
  input: "Rbn2b/Rbn2b/moving_mean/biased/read"
  input: "Rbn2b/cond/pred_id"
  attr {
    key: "T"
    value {
      type: DT_FLOAT
    }
  }
  attr {
    key: "_class"
    value {
      list {
        s: "loc:@Rbn2b/moving_mean"
      }
    }
  }
}
node {
  name: "Rbn2b/cond/AssignMovingAvg/mul"
  op: "Mul"
  input: "Rbn2b/cond/AssignMovingAvg/sub"
  input: "Rbn2b/cond/AssignMovingAvg/decay"
  attr {
    key: "T"
    value {
      type: DT_FLOAT
    }
  }
}
node {
  name: "Rbn2b/cond/AssignMovingAvg/AssignSub"
  op: "AssignSub"
  input: "Rbn2b/cond/AssignMovingAvg/AssignSub/Switch:1"
  input: "Rbn2b/cond/AssignMovingAvg/mul"
  attr {
    key: "T"
    value {
      type: DT_FLOAT
    }
  }
  attr {
    key: "_class"
    value {
      list {
        s: "loc:@Rbn2b/moving_mean"
      }
    }
  }
  attr {
    key: "use_locking"
    value {
      b: false
    }
  }
}
node {
  name: "Rbn2b/cond/AssignMovingAvg/AssignSub/Switch"
  op: "RefSwitch"
  input: "Rbn2b/Rbn2b/moving_mean/biased"
  input: "Rbn2b/cond/pred_id"
  attr {
    key: "T"
    value {
      type: DT_FLOAT
    }
  }
  attr {
    key: "_class"
    value {
      list {
        s: "loc:@Rbn2b/moving_mean"
      }
    }
  }
}
node {
  name: "Rbn2b/cond/AssignMovingAvg/AssignAdd/value"
  op: "Const"
  input: "^Rbn2b/cond/switch_t"
  attr {
    key: "dtype"
    value {
      type: DT_FLOAT
    }
  }
  attr {
    key: "value"
    value {
      tensor {
        dtype: DT_FLOAT
        tensor_shape {
        }
        float_val: 1.0
      }
    }
  }
}
node {
  name: "Rbn2b/cond/AssignMovingAvg/AssignAdd"
  op: "AssignAdd"
  input: "Rbn2b/cond/AssignMovingAvg/AssignAdd/Switch:1"
  input: "Rbn2b/cond/AssignMovingAvg/AssignAdd/value"
  attr {
    key: "T"
    value {
      type: DT_FLOAT
    }
  }
  attr {
    key: "_class"
    value {
      list {
        s: "loc:@Rbn2b/moving_mean"
      }
    }
  }
  attr {
    key: "use_locking"
    value {
      b: false
    }
  }
}
node {
  name: "Rbn2b/cond/AssignMovingAvg/AssignAdd/Switch"
  op: "RefSwitch"
  input: "Rbn2b/Rbn2b/moving_mean/local_step"
  input: "Rbn2b/cond/pred_id"
  attr {
    key: "T"
    value {
      type: DT_FLOAT
    }
  }
  attr {
    key: "_class"
    value {
      list {
        s: "loc:@Rbn2b/moving_mean"
      }
    }
  }
}
node {
  name: "Rbn2b/cond/AssignMovingAvg/sub_1/x"
  op: "Const"
  input: "^Rbn2b/cond/switch_t"
  attr {
    key: "dtype"
    value {
      type: DT_FLOAT
    }
  }
  attr {
    key: "value"
    value {
      tensor {
        dtype: DT_FLOAT
        tensor_shape {
        }
        float_val: 1.0
      }
    }
  }
}
node {
  name: "Rbn2b/cond/AssignMovingAvg/sub_1"
  op: "Sub"
  input: "Rbn2b/cond/AssignMovingAvg/sub_1/x"
  input: "Rbn2b/cond/AssignMovingAvg/decay"
  attr {
    key: "T"
    value {
      type: DT_FLOAT
    }
  }
}
node {
  name: "Rbn2b/cond/AssignMovingAvg/Pow"
  op: "Pow"
  input: "Rbn2b/cond/AssignMovingAvg/sub_1"
  input: "Rbn2b/cond/AssignMovingAvg/AssignAdd"
  attr {
    key: "T"
    value {
      type: DT_FLOAT
    }
  }
}
node {
  name: "Rbn2b/cond/AssignMovingAvg/sub_2/x"
  op: "Const"
  input: "^Rbn2b/cond/switch_t"
  attr {
    key: "dtype"
    value {
      type: DT_FLOAT
    }
  }
  attr {
    key: "value"
    value {
      tensor {
        dtype: DT_FLOAT
        tensor_shape {
        }
        float_val: 1.0
      }
    }
  }
}
node {
  name: "Rbn2b/cond/AssignMovingAvg/sub_2"
  op: "Sub"
  input: "Rbn2b/cond/AssignMovingAvg/sub_2/x"
  input: "Rbn2b/cond/AssignMovingAvg/Pow"
  attr {
    key: "T"
    value {
      type: DT_FLOAT
    }
  }
}
node {
  name: "Rbn2b/cond/AssignMovingAvg/truediv"
  op: "RealDiv"
  input: "Rbn2b/cond/AssignMovingAvg/AssignSub"
  input: "Rbn2b/cond/AssignMovingAvg/sub_2"
  attr {
    key: "T"
    value {
      type: DT_FLOAT
    }
  }
}
node {
  name: "Rbn2b/cond/AssignMovingAvg"
  op: "Assign"
  input: "Rbn2b/cond/AssignMovingAvg/Switch:1"
  input: "Rbn2b/cond/AssignMovingAvg/truediv"
  attr {
    key: "T"
    value {
      type: DT_FLOAT
    }
  }
  attr {
    key: "_class"
    value {
      list {
        s: "loc:@Rbn2b/moving_mean"
      }
    }
  }
  attr {
    key: "use_locking"
    value {
      b: true
    }
  }
  attr {
    key: "validate_shape"
    value {
      b: true
    }
  }
}
node {
  name: "Rbn2b/cond/AssignMovingAvg/Switch"
  op: "RefSwitch"
  input: "Rbn2b/moving_mean"
  input: "Rbn2b/cond/pred_id"
  attr {
    key: "T"
    value {
      type: DT_FLOAT
    }
  }
  attr {
    key: "_class"
    value {
      list {
        s: "loc:@Rbn2b/moving_mean"
      }
    }
  }
}
node {
  name: "Rbn2b/cond/AssignMovingAvg_1/decay"
  op: "Const"
  input: "^Rbn2b/cond/switch_t"
  attr {
    key: "dtype"
    value {
      type: DT_FLOAT
    }
  }
  attr {
    key: "value"
    value {
      tensor {
        dtype: DT_FLOAT
        tensor_shape {
        }
        float_val: 0.001
      }
    }
  }
}
node {
  name: "Rbn2b/Rbn2b/moving_variance/biased/Initializer/zeros"
  op: "Const"
  attr {
    key: "_class"
    value {
      list {
        s: "loc:@Rbn2b/moving_variance"
      }
    }
  }
  attr {
    key: "dtype"
    value {
      type: DT_FLOAT
    }
  }
  attr {
    key: "value"
    value {
      tensor {
        dtype: DT_FLOAT
        tensor_shape {
          dim {
            size: 96
          }
        }
        float_val: 0.0
      }
    }
  }
}
node {
  name: "Rbn2b/Rbn2b/moving_variance/biased"
  op: "VariableV2"
  attr {
    key: "_class"
    value {
      list {
        s: "loc:@Rbn2b/moving_variance"
      }
    }
  }
  attr {
    key: "container"
    value {
      s: ""
    }
  }
  attr {
    key: "dtype"
    value {
      type: DT_FLOAT
    }
  }
  attr {
    key: "shape"
    value {
      shape {
        dim {
          size: 96
        }
      }
    }
  }
  attr {
    key: "shared_name"
    value {
      s: ""
    }
  }
}
node {
  name: "Rbn2b/Rbn2b/moving_variance/biased/Assign"
  op: "Assign"
  input: "Rbn2b/Rbn2b/moving_variance/biased"
  input: "Rbn2b/Rbn2b/moving_variance/biased/Initializer/zeros"
  attr {
    key: "T"
    value {
      type: DT_FLOAT
    }
  }
  attr {
    key: "_class"
    value {
      list {
        s: "loc:@Rbn2b/moving_variance"
      }
    }
  }
  attr {
    key: "use_locking"
    value {
      b: true
    }
  }
  attr {
    key: "validate_shape"
    value {
      b: true
    }
  }
}
node {
  name: "Rbn2b/Rbn2b/moving_variance/biased/read"
  op: "Identity"
  input: "Rbn2b/Rbn2b/moving_variance/biased"
  attr {
    key: "T"
    value {
      type: DT_FLOAT
    }
  }
  attr {
    key: "_class"
    value {
      list {
        s: "loc:@Rbn2b/moving_variance"
      }
    }
  }
}
node {
  name: "Rbn2b/Rbn2b/moving_variance/local_step/Initializer/zeros"
  op: "Const"
  attr {
    key: "_class"
    value {
      list {
        s: "loc:@Rbn2b/moving_variance"
      }
    }
  }
  attr {
    key: "dtype"
    value {
      type: DT_FLOAT
    }
  }
  attr {
    key: "value"
    value {
      tensor {
        dtype: DT_FLOAT
        tensor_shape {
        }
        float_val: 0.0
      }
    }
  }
}
node {
  name: "Rbn2b/Rbn2b/moving_variance/local_step"
  op: "VariableV2"
  attr {
    key: "_class"
    value {
      list {
        s: "loc:@Rbn2b/moving_variance"
      }
    }
  }
  attr {
    key: "container"
    value {
      s: ""
    }
  }
  attr {
    key: "dtype"
    value {
      type: DT_FLOAT
    }
  }
  attr {
    key: "shape"
    value {
      shape {
      }
    }
  }
  attr {
    key: "shared_name"
    value {
      s: ""
    }
  }
}
node {
  name: "Rbn2b/Rbn2b/moving_variance/local_step/Assign"
  op: "Assign"
  input: "Rbn2b/Rbn2b/moving_variance/local_step"
  input: "Rbn2b/Rbn2b/moving_variance/local_step/Initializer/zeros"
  attr {
    key: "T"
    value {
      type: DT_FLOAT
    }
  }
  attr {
    key: "_class"
    value {
      list {
        s: "loc:@Rbn2b/moving_variance"
      }
    }
  }
  attr {
    key: "use_locking"
    value {
      b: true
    }
  }
  attr {
    key: "validate_shape"
    value {
      b: true
    }
  }
}
node {
  name: "Rbn2b/Rbn2b/moving_variance/local_step/read"
  op: "Identity"
  input: "Rbn2b/Rbn2b/moving_variance/local_step"
  attr {
    key: "T"
    value {
      type: DT_FLOAT
    }
  }
  attr {
    key: "_class"
    value {
      list {
        s: "loc:@Rbn2b/moving_variance"
      }
    }
  }
}
node {
  name: "Rbn2b/cond/AssignMovingAvg_1/sub"
  op: "Sub"
  input: "Rbn2b/cond/AssignMovingAvg_1/sub/Switch:1"
  input: "Rbn2b/cond/moments/Squeeze_1"
  attr {
    key: "T"
    value {
      type: DT_FLOAT
    }
  }
}
node {
  name: "Rbn2b/cond/AssignMovingAvg_1/sub/Switch"
  op: "Switch"
  input: "Rbn2b/Rbn2b/moving_variance/biased/read"
  input: "Rbn2b/cond/pred_id"
  attr {
    key: "T"
    value {
      type: DT_FLOAT
    }
  }
  attr {
    key: "_class"
    value {
      list {
        s: "loc:@Rbn2b/moving_variance"
      }
    }
  }
}
node {
  name: "Rbn2b/cond/AssignMovingAvg_1/mul"
  op: "Mul"
  input: "Rbn2b/cond/AssignMovingAvg_1/sub"
  input: "Rbn2b/cond/AssignMovingAvg_1/decay"
  attr {
    key: "T"
    value {
      type: DT_FLOAT
    }
  }
}
node {
  name: "Rbn2b/cond/AssignMovingAvg_1/AssignSub"
  op: "AssignSub"
  input: "Rbn2b/cond/AssignMovingAvg_1/AssignSub/Switch:1"
  input: "Rbn2b/cond/AssignMovingAvg_1/mul"
  attr {
    key: "T"
    value {
      type: DT_FLOAT
    }
  }
  attr {
    key: "_class"
    value {
      list {
        s: "loc:@Rbn2b/moving_variance"
      }
    }
  }
  attr {
    key: "use_locking"
    value {
      b: false
    }
  }
}
node {
  name: "Rbn2b/cond/AssignMovingAvg_1/AssignSub/Switch"
  op: "RefSwitch"
  input: "Rbn2b/Rbn2b/moving_variance/biased"
  input: "Rbn2b/cond/pred_id"
  attr {
    key: "T"
    value {
      type: DT_FLOAT
    }
  }
  attr {
    key: "_class"
    value {
      list {
        s: "loc:@Rbn2b/moving_variance"
      }
    }
  }
}
node {
  name: "Rbn2b/cond/AssignMovingAvg_1/AssignAdd/value"
  op: "Const"
  input: "^Rbn2b/cond/switch_t"
  attr {
    key: "dtype"
    value {
      type: DT_FLOAT
    }
  }
  attr {
    key: "value"
    value {
      tensor {
        dtype: DT_FLOAT
        tensor_shape {
        }
        float_val: 1.0
      }
    }
  }
}
node {
  name: "Rbn2b/cond/AssignMovingAvg_1/AssignAdd"
  op: "AssignAdd"
  input: "Rbn2b/cond/AssignMovingAvg_1/AssignAdd/Switch:1"
  input: "Rbn2b/cond/AssignMovingAvg_1/AssignAdd/value"
  attr {
    key: "T"
    value {
      type: DT_FLOAT
    }
  }
  attr {
    key: "_class"
    value {
      list {
        s: "loc:@Rbn2b/moving_variance"
      }
    }
  }
  attr {
    key: "use_locking"
    value {
      b: false
    }
  }
}
node {
  name: "Rbn2b/cond/AssignMovingAvg_1/AssignAdd/Switch"
  op: "RefSwitch"
  input: "Rbn2b/Rbn2b/moving_variance/local_step"
  input: "Rbn2b/cond/pred_id"
  attr {
    key: "T"
    value {
      type: DT_FLOAT
    }
  }
  attr {
    key: "_class"
    value {
      list {
        s: "loc:@Rbn2b/moving_variance"
      }
    }
  }
}
node {
  name: "Rbn2b/cond/AssignMovingAvg_1/sub_1/x"
  op: "Const"
  input: "^Rbn2b/cond/switch_t"
  attr {
    key: "dtype"
    value {
      type: DT_FLOAT
    }
  }
  attr {
    key: "value"
    value {
      tensor {
        dtype: DT_FLOAT
        tensor_shape {
        }
        float_val: 1.0
      }
    }
  }
}
node {
  name: "Rbn2b/cond/AssignMovingAvg_1/sub_1"
  op: "Sub"
  input: "Rbn2b/cond/AssignMovingAvg_1/sub_1/x"
  input: "Rbn2b/cond/AssignMovingAvg_1/decay"
  attr {
    key: "T"
    value {
      type: DT_FLOAT
    }
  }
}
node {
  name: "Rbn2b/cond/AssignMovingAvg_1/Pow"
  op: "Pow"
  input: "Rbn2b/cond/AssignMovingAvg_1/sub_1"
  input: "Rbn2b/cond/AssignMovingAvg_1/AssignAdd"
  attr {
    key: "T"
    value {
      type: DT_FLOAT
    }
  }
}
node {
  name: "Rbn2b/cond/AssignMovingAvg_1/sub_2/x"
  op: "Const"
  input: "^Rbn2b/cond/switch_t"
  attr {
    key: "dtype"
    value {
      type: DT_FLOAT
    }
  }
  attr {
    key: "value"
    value {
      tensor {
        dtype: DT_FLOAT
        tensor_shape {
        }
        float_val: 1.0
      }
    }
  }
}
node {
  name: "Rbn2b/cond/AssignMovingAvg_1/sub_2"
  op: "Sub"
  input: "Rbn2b/cond/AssignMovingAvg_1/sub_2/x"
  input: "Rbn2b/cond/AssignMovingAvg_1/Pow"
  attr {
    key: "T"
    value {
      type: DT_FLOAT
    }
  }
}
node {
  name: "Rbn2b/cond/AssignMovingAvg_1/truediv"
  op: "RealDiv"
  input: "Rbn2b/cond/AssignMovingAvg_1/AssignSub"
  input: "Rbn2b/cond/AssignMovingAvg_1/sub_2"
  attr {
    key: "T"
    value {
      type: DT_FLOAT
    }
  }
}
node {
  name: "Rbn2b/cond/AssignMovingAvg_1"
  op: "Assign"
  input: "Rbn2b/cond/AssignMovingAvg_1/Switch:1"
  input: "Rbn2b/cond/AssignMovingAvg_1/truediv"
  attr {
    key: "T"
    value {
      type: DT_FLOAT
    }
  }
  attr {
    key: "_class"
    value {
      list {
        s: "loc:@Rbn2b/moving_variance"
      }
    }
  }
  attr {
    key: "use_locking"
    value {
      b: true
    }
  }
  attr {
    key: "validate_shape"
    value {
      b: true
    }
  }
}
node {
  name: "Rbn2b/cond/AssignMovingAvg_1/Switch"
  op: "RefSwitch"
  input: "Rbn2b/moving_variance"
  input: "Rbn2b/cond/pred_id"
  attr {
    key: "T"
    value {
      type: DT_FLOAT
    }
  }
  attr {
    key: "_class"
    value {
      list {
        s: "loc:@Rbn2b/moving_variance"
      }
    }
  }
}
node {
  name: "Rbn2b/cond/Identity"
  op: "Identity"
  input: "Rbn2b/cond/moments/Squeeze"
  input: "^Rbn2b/cond/AssignMovingAvg"
  input: "^Rbn2b/cond/AssignMovingAvg_1"
  attr {
    key: "T"
    value {
      type: DT_FLOAT
    }
  }
}
node {
  name: "Rbn2b/cond/Identity_1"
  op: "Identity"
  input: "Rbn2b/cond/moments/Squeeze_1"
  input: "^Rbn2b/cond/AssignMovingAvg"
  input: "^Rbn2b/cond/AssignMovingAvg_1"
  attr {
    key: "T"
    value {
      type: DT_FLOAT
    }
  }
}
node {
  name: "Rbn2b/cond/Switch_1"
  op: "Switch"
  input: "Rbn2b/moving_mean/read"
  input: "Rbn2b/cond/pred_id"
  attr {
    key: "T"
    value {
      type: DT_FLOAT
    }
  }
  attr {
    key: "_class"
    value {
      list {
        s: "loc:@Rbn2b/moving_mean"
      }
    }
  }
}
node {
  name: "Rbn2b/cond/Switch_2"
  op: "Switch"
  input: "Rbn2b/moving_variance/read"
  input: "Rbn2b/cond/pred_id"
  attr {
    key: "T"
    value {
      type: DT_FLOAT
    }
  }
  attr {
    key: "_class"
    value {
      list {
        s: "loc:@Rbn2b/moving_variance"
      }
    }
  }
}
node {
  name: "Rbn2b/cond/Merge"
  op: "Merge"
  input: "Rbn2b/cond/Switch_1"
  input: "Rbn2b/cond/Identity"
  attr {
    key: "N"
    value {
      i: 2
    }
  }
  attr {
    key: "T"
    value {
      type: DT_FLOAT
    }
  }
}
node {
  name: "Rbn2b/cond/Merge_1"
  op: "Merge"
  input: "Rbn2b/cond/Switch_2"
  input: "Rbn2b/cond/Identity_1"
  attr {
    key: "N"
    value {
      i: 2
    }
  }
  attr {
    key: "T"
    value {
      type: DT_FLOAT
    }
  }
}
node {
  name: "batchnorm_3/add/y"
  op: "Const"
  attr {
    key: "dtype"
    value {
      type: DT_FLOAT
    }
  }
  attr {
    key: "value"
    value {
      tensor {
        dtype: DT_FLOAT
        tensor_shape {
        }
        float_val: 0.001
      }
    }
  }
}
node {
  name: "batchnorm_3/add"
  op: "AddV2"
  input: "Rbn2b/cond/Merge_1"
  input: "batchnorm_3/add/y"
  attr {
    key: "T"
    value {
      type: DT_FLOAT
    }
  }
}
node {
  name: "batchnorm_3/Rsqrt"
  op: "Rsqrt"
  input: "batchnorm_3/add"
  attr {
    key: "T"
    value {
      type: DT_FLOAT
    }
  }
}
node {
  name: "batchnorm_3/mul"
  op: "Mul"
  input: "batchnorm_3/Rsqrt"
  input: "Rbn2b/gamma/read"
  attr {
    key: "T"
    value {
      type: DT_FLOAT
    }
  }
}
node {
  name: "batchnorm_3/mul_1"
  op: "Mul"
  input: "add_3"
  input: "batchnorm_3/mul"
  attr {
    key: "T"
    value {
      type: DT_FLOAT
    }
  }
}
node {
  name: "batchnorm_3/mul_2"
  op: "Mul"
  input: "Rbn2b/cond/Merge"
  input: "batchnorm_3/mul"
  attr {
    key: "T"
    value {
      type: DT_FLOAT
    }
  }
}
node {
  name: "batchnorm_3/sub"
  op: "Sub"
  input: "Rbn2b/beta/read"
  input: "batchnorm_3/mul_2"
  attr {
    key: "T"
    value {
      type: DT_FLOAT
    }
  }
}
node {
  name: "batchnorm_3/add_1"
  op: "AddV2"
  input: "batchnorm_3/mul_1"
  input: "batchnorm_3/sub"
  attr {
    key: "T"
    value {
      type: DT_FLOAT
    }
  }
}
node {
  name: "Relu_3"
  op: "Relu"
  input: "batchnorm_3/add_1"
  attr {
    key: "T"
    value {
      type: DT_FLOAT
    }
  }
}
node {
  name: "Pad_2/paddings"
  op: "Const"
  attr {
    key: "dtype"
    value {
      type: DT_INT32
    }
  }
  attr {
    key: "value"
    value {
      tensor {
        dtype: DT_INT32
        tensor_shape {
          dim {
            size: 5
          }
          dim {
            size: 2
          }
        }
        tensor_content: "…"
      }
    }
  }
}
node {
  name: "Pad_2"
  op: "Pad"
  input: "Relu_3"
  input: "Pad_2/paddings"
  attr {
    key: "T"
    value {
      type: DT_FLOAT
    }
  }
  attr {
    key: "Tpaddings"
    value {
      type: DT_INT32
    }
  }
}
node {
  name: "Rconv2b/W/Initializer/random_uniform/shape"
  op: "Const"
  attr {
    key: "_class"
    value {
      list {
        s: "loc:@Rconv2b/W"
      }
    }
  }
  attr {
    key: "dtype"
    value {
      type: DT_INT32
    }
  }
  attr {
    key: "value"
    value {
      tensor {
        dtype: DT_INT32
        tensor_shape {
          dim {
            size: 5
          }
        }
…
    }
  }
  attr {
    key: "_class"
    value {
      list {
        s: "loc:@Rconv4b/b"
      }
    }
  }
  attr {
    key: "use_locking"
    value {
      b: true
    }
  }
  attr {
    key: "validate_shape"
    value {
      b: true
    }
  }
}
node {
  name: "save/Assign_191"
  op: "Assign"
  input: "Rconv4b/b/Adam_1"
  input: "save/RestoreV2:191"
  attr {
    key: "T"
    value {
      type: DT_FLOAT
    }
  }
  attr {
    key: "_class"
    value {
      list {
        s: "loc:@Rconv4b/b"
      }
    }
  }
  attr {
    key: "use_locking"
    value {
      b: true
    }
  }
  attr {
    key: "validate_shape"
    value {
      b: true
    }
  }
}
node {
  name: "save/Assign_192"
  op: "Assign"
  input: "Rconv5a/W"
  input: "save/RestoreV2:192"
  attr {
    key: "T"
    value {
      type: DT_FLOAT
    }
  }
  attr {
    key: "_class"
    value {
      list {
        s: "loc:@Rconv5a/W"
      }
    }
  }
  attr {
    key: "use_locking"
    value {
      b: true
    }
  }
  attr {
    key: "validate_shape"
    value {
      b: true
    }
  }
}
node {
  name: "save/Assign_193"
  op: "Assign"
  input: "Rconv5a/W/Adam"
  input: "save/RestoreV2:193"
  attr {
    key: "T"
    value {
      type: DT_FLOAT
    }
  }
  attr {
    key: "_class"
    value {
      list {
        s: "loc:@Rconv5a/W"
      }
    }
  }
  attr {
    key: "use_locking"
    value {
      b: true
    }
  }
  attr {
    key: "validate_shape"
    value {
      b: true
    }
  }
}
node {
  name: "save/Assign_194"
  op: "Assign"
  input: "Rconv5a/W/Adam_1"
  input: "save/RestoreV2:194"
  attr {
    key: "T"
    value {
      type: DT_FLOAT
    }
  }
  attr {
    key: "_class"
    value {
      list {
        s: "loc:@Rconv5a/W"
      }
    }
  }
  attr {
    key: "use_locking"
    value {
      b: true
    }
  }
  attr {
    key: "validate_shape"
    value {
      b: true
    }
  }
}
node {
  name: "save/Assign_195"
  op: "Assign"
  input: "Rconv5a/b"
  input: "save/RestoreV2:195"
  attr {
    key: "T"
    value {
      type: DT_FLOAT
    }
  }
  attr {
    key: "_class"
    value {
      list {
        s: "loc:@Rconv5a/b"
      }
    }
  }
  attr {
    key: "use_locking"
    value {
      b: true
    }
  }
  attr {
    key: "validate_shape"
    value {
      b: true
    }
  }
}
node {
  name: "save/Assign_196"
  op: "Assign"
  input: "Rconv5a/b/Adam"
  input: "save/RestoreV2:196"
  attr {
    key: "T"
    value {
      type: DT_FLOAT
    }
  }
  attr {
    key: "_class"
    value {
      list {
        s: "loc:@Rconv5a/b"
      }
    }
  }
  attr {
    key: "use_locking"
    value {
      b: true
    }
  }
  attr {
    key: "validate_shape"
    value {
      b: true
    }
  }
}
node {
  name: "save/Assign_197"
  op: "Assign"
  input: "Rconv5a/b/Adam_1"
  input: "save/RestoreV2:197"
  attr {
    key: "T"
    value {
      type: DT_FLOAT
    }
  }
  attr {
    key: "_class"
    value {
      list {
        s: "loc:@Rconv5a/b"
      }
    }
  }
  attr {
    key: "use_locking"
    value {
      b: true
    }
  }
  attr {
    key: "validate_shape"
    value {
      b: true
    }
  }
}
node {
  name: "save/Assign_198"
  op: "Assign"
  input: "Rconv5b/W"
  input: "save/RestoreV2:198"
  attr {
    key: "T"
    value {
      type: DT_FLOAT
    }
  }
  attr {
    key: "_class"
    value {
      list {
        s: "loc:@Rconv5b/W"
      }
    }
  }
  attr {
    key: "use_locking"
    value {
      b: true
    }
  }
  attr {
    key: "validate_shape"
    value {
      b: true
    }
  }
}
node {
  name: "save/Assign_199"
  op: "Assign"
  input: "Rconv5b/W/Adam"
  input: "save/RestoreV2:199"
  attr {
    key: "T"
    value {
      type: DT_FLOAT
    }
  }
  attr {
    key: "_class"
    value {
      list {
        s: "loc:@Rconv5b/W"
      }
    }
  }
  attr {
    key: "use_locking"
    value {
      b: true
    }
  }
  attr {
    key: "validate_shape"
    value {
      b: true
    }
  }
}
node {
  name: "save/Assign_200"
  op: "Assign"
  input: "Rconv5b/W/Adam_1"
  input: "save/RestoreV2:200"
  attr {
    key: "T"
    value {
      type: DT_FLOAT
    }
  }
  attr {
    key: "_class"
    value {
      list {
        s: "loc:@Rconv5b/W"
      }
    }
  }
  attr {
    key: "use_locking"
    value {
      b: true
    }
  }
  attr {
    key: "validate_shape"
    value {
      b: true
    }
  }
}
node {
  name: "save/Assign_201"
  op: "Assign"
  input: "Rconv5b/b"
  input: "save/RestoreV2:201"
  attr {
    key: "T"
    value {
      type: DT_FLOAT
    }
  }
  attr {
    key: "_class"
    value {
      list {
        s: "loc:@Rconv5b/b"
      }
    }
  }
  attr {
    key: "use_locking"
    value {
      b: true
    }
  }
  attr {
    key: "validate_shape"
    value {
      b: true
    }
  }
}
node {
  name: "save/Assign_202"
  op: "Assign"
  input: "Rconv5b/b/Adam"
  input: "save/RestoreV2:202"
  attr {
    key: "T"
    value {
      type: DT_FLOAT
    }
  }
  attr {
    key: "_class"
    value {
      list {
        s: "loc:@Rconv5b/b"
      }
    }
  }
  attr {
    key: "use_locking"
    value {
      b: true
    }
  }
  attr {
    key: "validate_shape"
    value {
      b: true
    }
  }
}
node {
  name: "save/Assign_203"
  op: "Assign"
  input: "Rconv5b/b/Adam_1"
  input: "save/RestoreV2:203"
  attr {
    key: "T"
    value {
      type: DT_FLOAT
    }
  }
  attr {
    key: "_class"
    value {
      list {
        s: "loc:@Rconv5b/b"
      }
    }
  }
  attr {
    key: "use_locking"
    value {
      b: true
    }
  }
  attr {
    key: "validate_shape"
    value {
      b: true
    }
  }
}
node {
  name: "save/Assign_204"
  op: "Assign"
  input: "Rconv6a/W"
  input: "save/RestoreV2:204"
  attr {
    key: "T"
    value {
      type: DT_FLOAT
    }
  }
  attr {
    key: "_class"
    value {
      list {
        s: "loc:@Rconv6a/W"
      }
    }
  }
  attr {
    key: "use_locking"
    value {
      b: true
    }
  }
  attr {
    key: "validate_shape"
    value {
      b: true
    }
  }
}
node {
  name: "save/Assign_205"
  op: "Assign"
  input: "Rconv6a/W/Adam"
  input: "save/RestoreV2:205"
  attr {
    key: "T"
    value {
      type: DT_FLOAT
    }
  }
  attr {
    key: "_class"
    value {
      list {
        s: "loc:@Rconv6a/W"
      }
    }
  }
  attr {
    key: "use_locking"
    value {
      b: true
    }
  }
  attr {
    key: "validate_shape"
    value {
      b: true
    }
  }
}
node {
  name: "save/Assign_206"
  op: "Assign"
  input: "Rconv6a/W/Adam_1"
  input: "save/RestoreV2:206"
  attr {
    key: "T"
    value {
      type: DT_FLOAT
    }
  }
  attr {
    key: "_class"
    value {
      list {
        s: "loc:@Rconv6a/W"
      }
    }
  }
  attr {
    key: "use_locking"
    value {
      b: true
    }
  }
  attr {
    key: "validate_shape"
    value {
      b: true
    }
  }
}
node {
  name: "save/Assign_207"
  op: "Assign"
  input: "Rconv6a/b"
  input: "save/RestoreV2:207"
  attr {
    key: "T"
    value {
      type: DT_FLOAT
    }
  }
  attr {
    key: "_class"
    value {
      list {
        s: "loc:@Rconv6a/b"
      }
    }
  }
  attr {
    key: "use_locking"
    value {
      b: true
    }
  }
  attr {
    key: "validate_shape"
    value {
      b: true
    }
  }
}
node {
  name: "save/Assign_208"
  op: "Assign"
  input: "Rconv6a/b/Adam"
  input: "save/RestoreV2:208"
  attr {
    key: "T"
    value {
      type: DT_FLOAT
    }
  }
  attr {
    key: "_class"
    value {
      list {
        s: "loc:@Rconv6a/b"
      }
    }
  }
  attr {
    key: "use_locking"
    value {
      b: true
    }
  }
  attr {
    key: "validate_shape"
    value {
      b: true
    }
  }
}
node {
  name: "save/Assign_209"
  op: "Assign"
  input: "Rconv6a/b/Adam_1"
  input: "save/RestoreV2:209"
  attr {
    key: "T"
    value {
      type: DT_FLOAT
    }
  }
  attr {
    key: "_class"
    value {
      list {
        s: "loc:@Rconv6a/b"
      }
    }
  }
  attr {
    key: "use_locking"
    value {
      b: true
    }
  }
  attr {
    key: "validate_shape"
    value {
      b: true
    }
  }
}
node {
  name: "save/Assign_210"
  op: "Assign"
  input: "Rconv6b/W"
  input: "save/RestoreV2:210"
  attr {
    key: "T"
    value {
      type: DT_FLOAT
    }
  }
  attr {
    key: "_class"
    value {
      list {
        s: "loc:@Rconv6b/W"
      }
    }
  }
  attr {
    key: "use_locking"
    value {
      b: true
    }
  }
  attr {
    key: "validate_shape"
    value {
      b: true
    }
  }
}
node {
  name: "save/Assign_211"
  op: "Assign"
  input: "Rconv6b/W/Adam"
  input: "save/RestoreV2:211"
  attr {
    key: "T"
    value {
      type: DT_FLOAT
    }
  }
  attr {
    key: "_class"
    value {
      list {
        s: "loc:@Rconv6b/W"
      }
    }
  }
  attr {
    key: "use_locking"
    value {
      b: true
    }
  }
  attr {
    key: "validate_shape"
    value {
      b: true
    }
  }
}
node {
  name: "save/Assign_212"
  op: "Assign"
  input: "Rconv6b/W/Adam_1"
  input: "save/RestoreV2:212"
  attr {
    key: "T"
    value {
      type: DT_FLOAT
    }
  }
  attr {
    key: "_class"
    value {
      list {
        s: "loc:@Rconv6b/W"
      }
    }
  }
  attr {
    key: "use_locking"
    value {
      b: true
    }
  }
  attr {
    key: "validate_shape"
    value {
      b: true
    }
  }
}
node {
  name: "save/Assign_213"
  op: "Assign"
  input: "Rconv6b/b"
  input: "save/RestoreV2:213"
  attr {
    key: "T"
    value {
      type: DT_FLOAT
    }
  }
  attr {
    key: "_class"
    value {
      list {
        s: "loc:@Rconv6b/b"
      }
    }
  }
  attr {
    key: "use_locking"
    value {
      b: true
    }
  }
  attr {
    key: "validate_shape"
    value {
      b: true
    }
  }
}
node {
  name: "save/Assign_214"
  op: "Assign"
  input: "Rconv6b/b/Adam"
  input: "save/RestoreV2:214"
  attr {
    key: "T"
    value {
      type: DT_FLOAT
    }
  }
  attr {
    key: "_class"
    value {
      list {
        s: "loc:@Rconv6b/b"
      }
    }
  }
  attr {
    key: "use_locking"
    value {
      b: true
    }
  }
  attr {
    key: "validate_shape"
    value {
      b: true
    }
  }
}
node {
  name: "save/Assign_215"
  op: "Assign"
  input: "Rconv6b/b/Adam_1"
  input: "save/RestoreV2:215"
  attr {
    key: "T"
    value {
      type: DT_FLOAT
    }
  }
  attr {
    key: "_class"
    value {
      list {
        s: "loc:@Rconv6b/b"
      }
    }
  }
  attr {
    key: "use_locking"
    value {
      b: true
    }
  }
  attr {
    key: "validate_shape"
    value {
      b: true
    }
  }
}
node {
  name: "save/Assign_216"
  op: "Assign"
  input: "beta1_power"
  input: "save/RestoreV2:216"
  attr {
    key: "T"
    value {
      type: DT_FLOAT
    }
  }
  attr {
    key: "_class"
    value {
      list {
        s: "loc:@Rbn1a/beta"
      }
    }
  }
  attr {
    key: "use_locking"
    value {
      b: true
    }
  }
  attr {
    key: "validate_shape"
    value {
      b: true
    }
  }
}
node {
  name: "save/Assign_217"
  op: "Assign"
  input: "beta2_power"
  input: "save/RestoreV2:217"
  attr {
    key: "T"
    value {
      type: DT_FLOAT
    }
  }
  attr {
    key: "_class"
    value {
      list {
        s: "loc:@Rbn1a/beta"
      }
    }
  }
  attr {
    key: "use_locking"
    value {
      b: true
    }
  }
  attr {
    key: "validate_shape"
    value {
      b: true
    }
  }
}
node {
  name: "save/Assign_218"
  op: "Assign"
  input: "conv1/W"
  input: "save/RestoreV2:218"
  attr {
    key: "T"
    value {
      type: DT_FLOAT
    }
  }
  attr {
    key: "_class"
    value {
      list {
        s: "loc:@conv1/W"
      }
    }
  }
  attr {
    key: "use_locking"
    value {
      b: true
    }
  }
  attr {
    key: "validate_shape"
    value {
      b: true
    }
  }
}
node {
  name: "save/Assign_219"
  op: "Assign"
  input: "conv1/W/Adam"
  input: "save/RestoreV2:219"
  attr {
    key: "T"
    value {
      type: DT_FLOAT
    }
  }
  attr {
    key: "_class"
    value {
      list {
        s: "loc:@conv1/W"
      }
    }
  }
  attr {
    key: "use_locking"
    value {
      b: true
    }
  }
  attr {
    key: "validate_shape"
    value {
      b: true
    }
  }
}
node {
  name: "save/Assign_220"
  op: "Assign"
  input: "conv1/W/Adam_1"
  input: "save/RestoreV2:220"
  attr {
    key: "T"
    value {
      type: DT_FLOAT
    }
  }
  attr {
    key: "_class"
    value {
      list {
        s: "loc:@conv1/W"
      }
    }
  }
  attr {
    key: "use_locking"
    value {
      b: true
    }
  }
  attr {
    key: "validate_shape"
    value {
      b: true
    }
  }
}
node {
  name: "save/Assign_221"
  op: "Assign"
  input: "conv1/b"
  input: "save/RestoreV2:221"
  attr {
    key: "T"
    value {
      type: DT_FLOAT
    }
  }
  attr {
    key: "_class"
    value {
      list {
        s: "loc:@conv1/b"
      }
    }
  }
  attr {
    key: "use_locking"
    value {
      b: true
    }
  }
  attr {
    key: "validate_shape"
    value {
      b: true
    }
  }
}
node {
  name: "save/Assign_222"
  op: "Assign"
  input: "conv1/b/Adam"
  input: "save/RestoreV2:222"
  attr {
    key: "T"
    value {
      type: DT_FLOAT
    }
  }
  attr {
    key: "_class"
    value {
      list {
        s: "loc:@conv1/b"
      }
    }
  }
  attr {
    key: "use_locking"
    value {
      b: true
    }
  }
  attr {
    key: "validate_shape"
    value {
      b: true
    }
  }
}
node {
  name: "save/Assign_223"
  op: "Assign"
  input: "conv1/b/Adam_1"
  input: "save/RestoreV2:223"
  attr {
    key: "T"
    value {
      type: DT_FLOAT
    }
  }
  attr {
    key: "_class"
    value {
      list {
        s: "loc:@conv1/b"
      }
    }
  }
  attr {
    key: "use_locking"
    value {
      b: true
    }
  }
  attr {
    key: "validate_shape"
    value {
      b: true
    }
  }
}
node {
  name: "save/Assign_224"
  op: "Assign"
  input: "conv2/W"
  input: "save/RestoreV2:224"
  attr {
    key: "T"
    value {
      type: DT_FLOAT
    }
  }
  attr {
    key: "_class"
    value {
      list {
        s: "loc:@conv2/W"
      }
    }
  }
  attr {
    key: "use_locking"
    value {
      b: true
    }
  }
  attr {
    key: "validate_shape"
    value {
      b: true
    }
  }
}
node {
  name: "save/Assign_225"
  op: "Assign"
  input: "conv2/W/Adam"
  input: "save/RestoreV2:225"
  attr {
    key: "T"
    value {
      type: DT_FLOAT
    }
  }
  attr {
    key: "_class"
    value {
      list {
        s: "loc:@conv2/W"
      }
    }
  }
  attr {
    key: "use_locking"
    value {
      b: true
    }
  }
  attr {
    key: "validate_shape"
    value {
      b: true
    }
  }
}
node {
  name: "save/Assign_226"
  op: "Assign"
  input: "conv2/W/Adam_1"
  input: "save/RestoreV2:226"
  attr {
    key: "T"
    value {
      type: DT_FLOAT
    }
  }
  attr {
    key: "_class"
    value {
      list {
        s: "loc:@conv2/W"
      }
    }
  }
  attr {
    key: "use_locking"
    value {
      b: true
    }
  }
  attr {
    key: "validate_shape"
    value {
      b: true
    }
  }
}
node {
  name: "save/Assign_227"
  op: "Assign"
  input: "conv2/b"
  input: "save/RestoreV2:227"
  attr {
    key: "T"
    value {
      type: DT_FLOAT
    }
  }
  attr {
    key: "_class"
    value {
      list {
        s: "loc:@conv2/b"
      }
    }
  }
  attr {
    key: "use_locking"
    value {
      b: true
    }
  }
  attr {
    key: "validate_shape"
    value {
      b: true
    }
  }
}
node {
  name: "save/Assign_228"
  op: "Assign"
  input: "conv2/b/Adam"
  input: "save/RestoreV2:228"
  attr {
    key: "T"
    value {
      type: DT_FLOAT
    }
  }
  attr {
    key: "_class"
    value {
      list {
        s: "loc:@conv2/b"
      }
    }
  }
  attr {
    key: "use_locking"
    value {
      b: true
    }
  }
  attr {
    key: "validate_shape"
    value {
      b: true
    }
  }
}
node {
  name: "save/Assign_229"
  op: "Assign"
  input: "conv2/b/Adam_1"
  input: "save/RestoreV2:229"
  attr {
    key: "T"
    value {
      type: DT_FLOAT
    }
  }
  attr {
    key: "_class"
    value {
      list {
        s: "loc:@conv2/b"
      }
    }
  }
  attr {
    key: "use_locking"
    value {
      b: true
    }
  }
  attr {
    key: "validate_shape"
    value {
      b: true
    }
  }
}
node {
  name: "save/Assign_230"
  op: "Assign"
  input: "fbn1/beta"
  input: "save/RestoreV2:230"
  attr {
    key: "T"
    value {
      type: DT_FLOAT
    }
  }
  attr {
    key: "_class"
    value {
      list {
        s: "loc:@fbn1/beta"
      }
    }
  }
  attr {
    key: "use_locking"
    value {
      b: true
    }
  }
  attr {
    key: "validate_shape"
    value {
      b: true
    }
  }
}
node {
  name: "save/Assign_231"
  op: "Assign"
  input: "fbn1/beta/Adam"
  input: "save/RestoreV2:231"
  attr {
    key: "T"
    value {
      type: DT_FLOAT
    }
  }
  attr {
    key: "_class"
    value {
      list {
        s: "loc:@fbn1/beta"
      }
    }
  }
  attr {
    key: "use_locking"
    value {
      b: true
    }
  }
  attr {
    key: "validate_shape"
    value {
      b: true
    }
  }
}
node {
  name: "save/Assign_232"
  op: "Assign"
  input: "fbn1/beta/Adam_1"
  input: "save/RestoreV2:232"
  attr {
    key: "T"
    value {
      type: DT_FLOAT
    }
  }
  attr {
    key: "_class"
    value {
      list {
        s: "loc:@fbn1/beta"
      }
    }
  }
  attr {
    key: "use_locking"
    value {
      b: true
    }
  }
  attr {
    key: "validate_shape"
    value {
      b: true
    }
  }
}
node {
  name: "save/Assign_233"
  op: "Assign"
  input: "fbn1/fbn1/moving_mean/biased"
  input: "save/RestoreV2:233"
  attr {
    key: "T"
    value {
      type: DT_FLOAT
    }
  }
  attr {
    key: "_class"
    value {
      list {
        s: "loc:@fbn1/moving_mean"
      }
    }
  }
  attr {
    key: "use_locking"
    value {
      b: true
    }
  }
  attr {
    key: "validate_shape"
    value {
      b: true
    }
  }
}
node {
  name: "save/Assign_234"
  op: "Assign"
  input: "fbn1/fbn1/moving_mean/local_step"
  input: "save/RestoreV2:234"
  attr {
    key: "T"
    value {
      type: DT_FLOAT
    }
  }
  attr {
    key: "_class"
    value {
      list {
        s: "loc:@fbn1/moving_mean"
      }
    }
  }
  attr {
    key: "use_locking"
    value {
      b: true
    }
  }
  attr {
    key: "validate_shape"
    value {
      b: true
    }
  }
}
node {
  name: "save/Assign_235"
  op: "Assign"
  input: "fbn1/fbn1/moving_variance/biased"
  input: "save/RestoreV2:235"
  attr {
    key: "T"
    value {
      type: DT_FLOAT
    }
  }
  attr {
    key: "_class"
    value {
      list {
        s: "loc:@fbn1/moving_variance"
      }
    }
  }
  attr {
    key: "use_locking"
    value {
      b: true
    }
  }
  attr {
    key: "validate_shape"
    value {
      b: true
    }
  }
}
node {
  name: "save/Assign_236"
  op: "Assign"
  input: "fbn1/fbn1/moving_variance/local_step"
  input: "save/RestoreV2:236"
  attr {
    key: "T"
    value {
      type: DT_FLOAT
    }
  }
  attr {
    key: "_class"
    value {
      list {
        s: "loc:@fbn1/moving_variance"
      }
    }
  }
  attr {
    key: "use_locking"
    value {
      b: true
    }
  }
  attr {
    key: "validate_shape"
    value {
      b: true
    }
  }
}
node {
  name: "save/Assign_237"
  op: "Assign"
  input: "fbn1/gamma"
  input: "save/RestoreV2:237"
  attr {
    key: "T"
    value {
      type: DT_FLOAT
    }
  }
  attr {
    key: "_class"
    value {
      list {
        s: "loc:@fbn1/gamma"
      }
    }
  }
  attr {
    key: "use_locking"
    value {
      b: true
    }
  }
  attr {
    key: "validate_shape"
    value {
      b: true
    }
  }
}
node {
  name: "save/Assign_238"
  op: "Assign"
  input: "fbn1/gamma/Adam"
  input: "save/RestoreV2:238"
  attr {
    key: "T"
    value {
      type: DT_FLOAT
    }
  }
  attr {
    key: "_class"
    value {
      list {
        s: "loc:@fbn1/gamma"
      }
    }
  }
  attr {
    key: "use_locking"
    value {
      b: true
    }
  }
  attr {
    key: "validate_shape"
    value {
      b: true
    }
  }
}
node {
  name: "save/Assign_239"
  op: "Assign"
  input: "fbn1/gamma/Adam_1"
  input: "save/RestoreV2:239"
  attr {
    key: "T"
    value {
      type: DT_FLOAT
    }
  }
  attr {
    key: "_class"
    value {
      list {
        s: "loc:@fbn1/gamma"
      }
    }
  }
  attr {
    key: "use_locking"
    value {
      b: true
    }
  }
  attr {
    key: "validate_shape"
    value {
      b: true
    }
  }
}
node {
  name: "save/Assign_240"
  op: "Assign"
  input: "fbn1/moving_mean"
  input: "save/RestoreV2:240"
  attr {
    key: "T"
    value {
      type: DT_FLOAT
    }
  }
  attr {
    key: "_class"
    value {
      list {
        s: "loc:@fbn1/moving_mean"
      }
    }
  }
  attr {
    key: "use_locking"
    value {
      b: true
    }
  }
  attr {
    key: "validate_shape"
    value {
      b: true
    }
  }
}
node {
  name: "save/Assign_241"
  op: "Assign"
  input: "fbn1/moving_variance"
  input: "save/RestoreV2:241"
  attr {
    key: "T"
    value {
      type: DT_FLOAT
    }
  }
  attr {
    key: "_class"
    value {
      list {
        s: "loc:@fbn1/moving_variance"
      }
    }
  }
  attr {
    key: "use_locking"
    value {
      b: true
    }
  }
  attr {
    key: "validate_shape"
    value {
      b: true
    }
  }
}
node {
  name: "save/Assign_242"
  op: "Assign"
  input: "fconv1/W"
  input: "save/RestoreV2:242"
  attr {
    key: "T"
    value {
      type: DT_FLOAT
    }
  }
  attr {
    key: "_class"
    value {
      list {
        s: "loc:@fconv1/W"
      }
    }
  }
  attr {
    key: "use_locking"
    value {
      b: true
    }
  }
  attr {
    key: "validate_shape"
    value {
      b: true
    }
  }
}
node {
  name: "save/Assign_243"
  op: "Assign"
  input: "fconv1/W/Adam"
  input: "save/RestoreV2:243"
  attr {
    key: "T"
    value {
      type: DT_FLOAT
    }
  }
  attr {
    key: "_class"
    value {
      list {
        s: "loc:@fconv1/W"
      }
    }
  }
  attr {
    key: "use_locking"
    value {
      b: true
    }
  }
  attr {
    key: "validate_shape"
    value {
      b: true
    }
  }
}
node {
  name: "save/Assign_244"
  op: "Assign"
  input: "fconv1/W/Adam_1"
  input: "save/RestoreV2:244"
  attr {
    key: "T"
    value {
      type: DT_FLOAT
    }
  }
  attr {
    key: "_class"
    value {
      list {
        s: "loc:@fconv1/W"
      }
    }
  }
  attr {
    key: "use_locking"
    value {
      b: true
    }
  }
  attr {
    key: "validate_shape"
    value {
      b: true
    }
  }
}
node {
  name: "save/Assign_245"
  op: "Assign"
  input: "fconv1/b"
  input: "save/RestoreV2:245"
  attr {
    key: "T"
    value {
      type: DT_FLOAT
    }
  }
  attr {
    key: "_class"
    value {
      list {
        s: "loc:@fconv1/b"
      }
    }
  }
  attr {
    key: "use_locking"
    value {
      b: true
    }
  }
  attr {
    key: "validate_shape"
    value {
      b: true
    }
  }
}
node {
  name: "save/Assign_246"
  op: "Assign"
  input: "fconv1/b/Adam"
  input: "save/RestoreV2:246"
  attr {
    key: "T"
    value {
      type: DT_FLOAT
    }
  }
  attr {
    key: "_class"
    value {
      list {
        s: "loc:@fconv1/b"
      }
    }
  }
  attr {
    key: "use_locking"
    value {
      b: true
    }
  }
  attr {
    key: "validate_shape"
    value {
      b: true
    }
  }
}
node {
  name: "save/Assign_247"
  op: "Assign"
  input: "fconv1/b/Adam_1"
  input: "save/RestoreV2:247"
  attr {
    key: "T"
    value {
      type: DT_FLOAT
    }
  }
  attr {
    key: "_class"
    value {
      list {
        s: "loc:@fconv1/b"
      }
    }
  }
  attr {
    key: "use_locking"
    value {
      b: true
    }
  }
  attr {
    key: "validate_shape"
    value {
      b: true
    }
  }
}
node {
  name: "save/Assign_248"
  op: "Assign"
  input: "fconv2/W"
  input: "save/RestoreV2:248"
  attr {
    key: "T"
    value {
      type: DT_FLOAT
    }
  }
  attr {
    key: "_class"
    value {
      list {
        s: "loc:@fconv2/W"
      }
    }
  }
  attr {
    key: "use_locking"
    value {
      b: true
    }
  }
  attr {
    key: "validate_shape"
    value {
      b: true
    }
  }
}
node {
  name: "save/Assign_249"
  op: "Assign"
  input: "fconv2/W/Adam"
  input: "save/RestoreV2:249"
  attr {
    key: "T"
    value {
      type: DT_FLOAT
    }
  }
  attr {
    key: "_class"
    value {
      list {
        s: "loc:@fconv2/W"
      }
    }
  }
  attr {
    key: "use_locking"
    value {
      b: true
    }
  }
  attr {
    key: "validate_shape"
    value {
      b: true
    }
  }
}
node {
  name: "save/Assign_250"
  op: "Assign"
  input: "fconv2/W/Adam_1"
  input: "save/RestoreV2:250"
  attr {
    key: "T"
    value {
      type: DT_FLOAT
    }
  }
  attr {
    key: "_class"
    value {
      list {
        s: "loc:@fconv2/W"
      }
    }
  }
  attr {
    key: "use_locking"
    value {
      b: true
    }
  }
  attr {
    key: "validate_shape"
    value {
      b: true
    }
  }
}
node {
  name: "save/Assign_251"
  op: "Assign"
  input: "fconv2/b"
  input: "save/RestoreV2:251"
  attr {
    key: "T"
    value {
      type: DT_FLOAT
    }
  }
  attr {
    key: "_class"
    value {
      list {
        s: "loc:@fconv2/b"
      }
    }
  }
  attr {
    key: "use_locking"
    value {
      b: true
    }
  }
  attr {
    key: "validate_shape"
    value {
      b: true
    }
  }
}
node {
  name: "save/Assign_252"
  op: "Assign"
  input: "fconv2/b/Adam"
  input: "save/RestoreV2:252"
  attr {
    key: "T"
    value {
      type: DT_FLOAT
    }
  }
  attr {
    key: "_class"
    value {
      list {
        s: "loc:@fconv2/b"
      }
    }
  }
  attr {
    key: "use_locking"
    value {
      b: true
    }
  }
  attr {
    key: "validate_shape"
    value {
      b: true
    }
  }
}
node {
  name: "save/Assign_253"
  op: "Assign"
  input: "fconv2/b/Adam_1"
  input: "save/RestoreV2:253"
  attr {
    key: "T"
    value {
      type: DT_FLOAT
    }
  }
  attr {
    key: "_class"
    value {
      list {
        s: "loc:@fconv2/b"
      }
    }
  }
  attr {
    key: "use_locking"
    value {
      b: true
    }
  }
  attr {
    key: "validate_shape"
    value {
      b: true
    }
  }
}
node {
  name: "save/Identity"
  op: "Identity"
  input: "save/RestoreV2:254"
  attr {
    key: "T"
    value {
      type: DT_FLOAT
    }
  }
}
node {
  name: "save/AssignVariableOp"
  op: "AssignVariableOp"
  input: "filter_localexpand"
  input: "save/Identity"
  attr {
    key: "dtype"
    value {
      type: DT_FLOAT
    }
  }
}
node {
  name: "save/Identity_1"
  op: "Identity"
  input: "save/RestoreV2:255"
  attr {
    key: "T"
    value {
      type: DT_FLOAT
    }
  }
}
node {
  name: "save/AssignVariableOp_1"
  op: "AssignVariableOp"
  input: "filter_localexpand_1"
  input: "save/Identity_1"
  attr {
    key: "dtype"
    value {
      type: DT_FLOAT
    }
  }
}
node {
  name: "save/Identity_2"
  op: "Identity"
  input: "save/RestoreV2:256"
  attr {
    key: "T"
    value {
      type: DT_FLOAT
    }
  }
}
node {
  name: "save/AssignVariableOp_2"
  op: "AssignVariableOp"
  input: "filter_localexpand_2"
  input: "save/Identity_2"
  attr {
    key: "dtype"
    value {
      type: DT_FLOAT
    }
  }
}
node {
  name: "save/Identity_3"
  op: "Identity"
  input: "save/RestoreV2:257"
  attr {
    key: "T"
    value {
      type: DT_FLOAT
    }
  }
}
node {
  name: "save/AssignVariableOp_3"
  op: "AssignVariableOp"
  input: "learning_rate"
  input: "save/Identity_3"
  attr {
    key: "dtype"
    value {
      type: DT_FLOAT
    }
  }
}
node {
  name: "save/Assign_254"
  op: "Assign"
  input: "rconv1/W"
  input: "save/RestoreV2:258"
  attr {
    key: "T"
    value {
      type: DT_FLOAT
    }
  }
  attr {
    key: "_class"
    value {
      list {
        s: "loc:@rconv1/W"
      }
    }
  }
  attr {
    key: "use_locking"
    value {
      b: true
    }
  }
  attr {
    key: "validate_shape"
    value {
      b: true
    }
  }
}
node {
  name: "save/Assign_255"
  op: "Assign"
  input: "rconv1/W/Adam"
  input: "save/RestoreV2:259"
  attr {
    key: "T"
    value {
      type: DT_FLOAT
    }
  }
  attr {
    key: "_class"
    value {
      list {
        s: "loc:@rconv1/W"
      }
    }
  }
  attr {
    key: "use_locking"
    value {
      b: true
    }
  }
  attr {
    key: "validate_shape"
    value {
      b: true
    }
  }
}
node {
  name: "save/Assign_256"
  op: "Assign"
  input: "rconv1/W/Adam_1"
  input: "save/RestoreV2:260"
  attr {
    key: "T"
    value {
      type: DT_FLOAT
    }
  }
  attr {
    key: "_class"
    value {
      list {
        s: "loc:@rconv1/W"
      }
    }
  }
  attr {
    key: "use_locking"
    value {
      b: true
    }
  }
  attr {
    key: "validate_shape"
    value {
      b: true
    }
  }
}
node {
  name: "save/Assign_257"
  op: "Assign"
  input: "rconv1/b"
  input: "save/RestoreV2:261"
  attr {
    key: "T"
    value {
      type: DT_FLOAT
    }
  }
  attr {
    key: "_class"
    value {
      list {
        s: "loc:@rconv1/b"
      }
    }
  }
  attr {
    key: "use_locking"
    value {
      b: true
    }
  }
  attr {
    key: "validate_shape"
    value {
      b: true
    }
  }
}
node {
  name: "save/Assign_258"
  op: "Assign"
  input: "rconv1/b/Adam"
  input: "save/RestoreV2:262"
  attr {
    key: "T"
    value {
      type: DT_FLOAT
    }
  }
  attr {
    key: "_class"
    value {
      list {
        s: "loc:@rconv1/b"
      }
    }
  }
  attr {
    key: "use_locking"
    value {
      b: true
    }
  }
  attr {
    key: "validate_shape"
    value {
      b: true
    }
  }
}
node {
  name: "save/Assign_259"
  op: "Assign"
  input: "rconv1/b/Adam_1"
  input: "save/RestoreV2:263"
  attr {
    key: "T"
    value {
      type: DT_FLOAT
    }
  }
  attr {
    key: "_class"
    value {
      list {
        s: "loc:@rconv1/b"
      }
    }
  }
  attr {
    key: "use_locking"
    value {
      b: true
    }
  }
  attr {
    key: "validate_shape"
    value {
      b: true
    }
  }
}
node {
  name: "save/Assign_260"
  op: "Assign"
  input: "rconv2/W"
  input: "save/RestoreV2:264"
  attr {
    key: "T"
    value {
      type: DT_FLOAT
    }
  }
  attr {
    key: "_class"
    value {
      list {
        s: "loc:@rconv2/W"
      }
    }
  }
  attr {
    key: "use_locking"
    value {
      b: true
    }
  }
  attr {
    key: "validate_shape"
    value {
      b: true
    }
  }
}
node {
  name: "save/Assign_261"
  op: "Assign"
  input: "rconv2/W/Adam"
  input: "save/RestoreV2:265"
  attr {
    key: "T"
    value {
      type: DT_FLOAT
    }
  }
  attr {
    key: "_class"
    value {
      list {
        s: "loc:@rconv2/W"
      }
    }
  }
  attr {
    key: "use_locking"
    value {
      b: true
    }
  }
  attr {
    key: "validate_shape"
    value {
      b: true
    }
  }
}
node {
  name: "save/Assign_262"
  op: "Assign"
  input: "rconv2/W/Adam_1"
  input: "save/RestoreV2:266"
  attr {
    key: "T"
    value {
      type: DT_FLOAT
    }
  }
  attr {
    key: "_class"
    value {
      list {
        s: "loc:@rconv2/W"
      }
    }
  }
  attr {
    key: "use_locking"
    value {
      b: true
    }
  }
  attr {
    key: "validate_shape"
    value {
      b: true
    }
  }
}
node {
  name: "save/Assign_263"
  op: "Assign"
  input: "rconv2/b"
  input: "save/RestoreV2:267"
  attr {
    key: "T"
    value {
      type: DT_FLOAT
    }
  }
  attr {
    key: "_class"
    value {
      list {
        s: "loc:@rconv2/b"
      }
    }
  }
  attr {
    key: "use_locking"
    value {
      b: true
    }
  }
  attr {
    key: "validate_shape"
    value {
      b: true
    }
  }
}
node {
  name: "save/Assign_264"
  op: "Assign"
  input: "rconv2/b/Adam"
  input: "save/RestoreV2:268"
  attr {
    key: "T"
    value {
      type: DT_FLOAT
    }
  }
  attr {
    key: "_class"
    value {
      list {
        s: "loc:@rconv2/b"
      }
    }
  }
  attr {
    key: "use_locking"
    value {
      b: true
    }
  }
  attr {
    key: "validate_shape"
    value {
      b: true
    }
  }
}
node {
  name: "save/Assign_265"
  op: "Assign"
  input: "rconv2/b/Adam_1"
  input: "save/RestoreV2:269"
  attr {
    key: "T"
    value {
      type: DT_FLOAT
    }
  }
  attr {
    key: "_class"
    value {
      list {
        s: "loc:@rconv2/b"
      }
    }
  }
  attr {
    key: "use_locking"
    value {
      b: true
    }
  }
  attr {
    key: "validate_shape"
    value {
      b: true
    }
  }
}
node {
  name: "save/restore_all"
  op: "NoOp"
  input: "^save/Assign"
  input: "^save/AssignVariableOp"
  input: "^save/AssignVariableOp_1"
  input: "^save/AssignVariableOp_2"
  input: "^save/AssignVariableOp_3"
  input: "^save/Assign_1"
  input: "^save/Assign_10"
  input: "^save/Assign_100"
  input: "^save/Assign_101"
  input: "^save/Assign_102"
  input: "^save/Assign_103"
  input: "^save/Assign_104"
  input: "^save/Assign_105"
  input: "^save/Assign_106"
  input: "^save/Assign_107"
  input: "^save/Assign_108"
  input: "^save/Assign_109"
  input: "^save/Assign_11"
  input: "^save/Assign_110"
  input: "^save/Assign_111"
  input: "^save/Assign_112"
  input: "^save/Assign_113"
  input: "^save/Assign_114"
  input: "^save/Assign_115"
  input: "^save/Assign_116"
  input: "^save/Assign_117"
  input: "^save/Assign_118"
  input: "^save/Assign_119"
  input: "^save/Assign_12"
  input: "^save/Assign_120"
  input: "^save/Assign_121"
  input: "^save/Assign_122"
  input: "^save/Assign_123"
  input: "^save/Assign_124"
  input: "^save/Assign_125"
  input: "^save/Assign_126"
  input: "^save/Assign_127"
  input: "^save/Assign_128"
  input: "^save/Assign_129"
  input: "^save/Assign_13"
  input: "^save/Assign_130"
  input: "^save/Assign_131"
  input: "^save/Assign_132"
  input: "^save/Assign_133"
  input: "^save/Assign_134"
  input: "^save/Assign_135"
  input: "^save/Assign_136"
  input: "^save/Assign_137"
  input: "^save/Assign_138"
  input: "^save/Assign_139"
  input: "^save/Assign_14"
  input: "^save/Assign_140"
  input: "^save/Assign_141"
  input: "^save/Assign_142"
  input: "^save/Assign_143"
  input: "^save/Assign_144"
  input: "^save/Assign_145"
  input: "^save/Assign_146"
  input: "^save/Assign_147"
  input: "^save/Assign_148"
  input: "^save/Assign_149"
  input: "^save/Assign_15"
  input: "^save/Assign_150"
  input: "^save/Assign_151"
  input: "^save/Assign_152"
  input: "^save/Assign_153"
  input: "^save/Assign_154"
  input: "^save/Assign_155"
  input: "^save/Assign_156"
  input: "^save/Assign_157"
  input: "^save/Assign_158"
  input: "^save/Assign_159"
  input: "^save/Assign_16"
  input: "^save/Assign_160"
  input: "^save/Assign_161"
  input: "^save/Assign_162"
  input: "^save/Assign_163"
  input: "^save/Assign_164"
  input: "^save/Assign_165"
  input: "^save/Assign_166"
  input: "^save/Assign_167"
  input: "^save/Assign_168"
  input: "^save/Assign_169"
  input: "^save/Assign_17"
  input: "^save/Assign_170"
  input: "^save/Assign_171"
  input: "^save/Assign_172"
  input: "^save/Assign_173"
  input: "^save/Assign_174"
  input: "^save/Assign_175"
  input: "^save/Assign_176"
  input: "^save/Assign_177"
  input: "^save/Assign_178"
  input: "^save/Assign_179"
  input: "^save/Assign_18"
  input: "^save/Assign_180"
  input: "^save/Assign_181"
  input: "^save/Assign_182"
  input: "^save/Assign_183"
  input: "^save/Assign_184"
  input: "^save/Assign_185"
  input: "^save/Assign_186"
  input: "^save/Assign_187"
  input: "^save/Assign_188"
  input: "^save/Assign_189"
  input: "^save/Assign_19"
  input: "^save/Assign_190"
  input: "^save/Assign_191"
  input: "^save/Assign_192"
  input: "^save/Assign_193"
  input: "^save/Assign_194"
  input: "^save/Assign_195"
  input: "^save/Assign_196"
  input: "^save/Assign_197"
  input: "^save/Assign_198"
  input: "^save/Assign_199"
  input: "^save/Assign_2"
  input: "^save/Assign_20"
  input: "^save/Assign_200"
  input: "^save/Assign_201"
  input: "^save/Assign_202"
  input: "^save/Assign_203"
  input: "^save/Assign_204"
  input: "^save/Assign_205"
  input: "^save/Assign_206"
  input: "^save/Assign_207"
  input: "^save/Assign_208"
  input: "^save/Assign_209"
  input: "^save/Assign_21"
  input: "^save/Assign_210"
  input: "^save/Assign_211"
  input: "^save/Assign_212"
  input: "^save/Assign_213"
  input: "^save/Assign_214"
  input: "^save/Assign_215"
  input: "^save/Assign_216"
  input: "^save/Assign_217"
  input: "^save/Assign_218"
  input: "^save/Assign_219"
  input: "^save/Assign_22"
  input: "^save/Assign_220"
  input: "^save/Assign_221"
  input: "^save/Assign_222"
  input: "^save/Assign_223"
  input: "^save/Assign_224"
  input: "^save/Assign_225"
  input: "^save/Assign_226"
  input: "^save/Assign_227"
  input: "^save/Assign_228"
  input: "^save/Assign_229"
  input: "^save/Assign_23"
  input: "^save/Assign_230"
  input: "^save/Assign_231"
  input: "^save/Assign_232"
  input: "^save/Assign_233"
  input: "^save/Assign_234"
  input: "^save/Assign_235"
  input: "^save/Assign_236"
  input: "^save/Assign_237"
  input: "^save/Assign_238"
  input: "^save/Assign_239"
  input: "^save/Assign_24"
  input: "^save/Assign_240"
  input: "^save/Assign_241"
  input: "^save/Assign_242"
  input: "^save/Assign_243"
  input: "^save/Assign_244"
  input: "^save/Assign_245"
  input: "^save/Assign_246"
  input: "^save/Assign_247"
  input: "^save/Assign_248"
  input: "^save/Assign_249"
  input: "^save/Assign_25"
  input: "^save/Assign_250"
  input: "^save/Assign_251"
  input: "^save/Assign_252"
  input: "^save/Assign_253"
  input: "^save/Assign_254"
  input: "^save/Assign_255"
  input: "^save/Assign_256"
  input: "^save/Assign_257"
  input: "^save/Assign_258"
  input: "^save/Assign_259"
  input: "^save/Assign_26"
  input: "^save/Assign_260"
  input: "^save/Assign_261"
  input: "^save/Assign_262"
  input: "^save/Assign_263"
  input: "^save/Assign_264"
  input: "^save/Assign_265"
  input: "^save/Assign_27"
  input: "^save/Assign_28"
  input: "^save/Assign_29"
  input: "^save/Assign_3"
  input: "^save/Assign_30"
  input: "^save/Assign_31"
  input: "^save/Assign_32"
  input: "^save/Assign_33"
  input: "^save/Assign_34"
  input: "^save/Assign_35"
  input: "^save/Assign_36"
  input: "^save/Assign_37"
  input: "^save/Assign_38"
  input: "^save/Assign_39"
  input: "^save/Assign_4"
  input: "^save/Assign_40"
  input: "^save/Assign_41"
  input: "^save/Assign_42"
  input: "^save/Assign_43"
  input: "^save/Assign_44"
  input: "^save/Assign_45"
  input: "^save/Assign_46"
  input: "^save/Assign_47"
  input: "^save/Assign_48"
  input: "^save/Assign_49"
  input: "^save/Assign_5"
  input: "^save/Assign_50"
  input: "^save/Assign_51"
  input: "^save/Assign_52"
  input: "^save/Assign_53"
  input: "^save/Assign_54"
  input: "^save/Assign_55"
  input: "^save/Assign_56"
  input: "^save/Assign_57"
  input: "^save/Assign_58"
  input: "^save/Assign_59"
  input: "^save/Assign_6"
  input: "^save/Assign_60"
  input: "^save/Assign_61"
  input: "^save/Assign_62"
  input: "^save/Assign_63"
  input: "^save/Assign_64"
  input: "^save/Assign_65"
  input: "^save/Assign_66"
  input: "^save/Assign_67"
  input: "^save/Assign_68"
  input: "^save/Assign_69"
  input: "^save/Assign_7"
  input: "^save/Assign_70"
  input: "^save/Assign_71"
  input: "^save/Assign_72"
  input: "^save/Assign_73"
  input: "^save/Assign_74"
  input: "^save/Assign_75"
  input: "^save/Assign_76"
  input: "^save/Assign_77"
  input: "^save/Assign_78"
  input: "^save/Assign_79"
  input: "^save/Assign_8"
  input: "^save/Assign_80"
  input: "^save/Assign_81"
  input: "^save/Assign_82"
  input: "^save/Assign_83"
  input: "^save/Assign_84"
  input: "^save/Assign_85"
  input: "^save/Assign_86"
  input: "^save/Assign_87"
  input: "^save/Assign_88"
  input: "^save/Assign_89"
  input: "^save/Assign_9"
  input: "^save/Assign_90"
  input: "^save/Assign_91"
  input: "^save/Assign_92"
  input: "^save/Assign_93"
  input: "^save/Assign_94"
  input: "^save/Assign_95"
  input: "^save/Assign_96"
  input: "^save/Assign_97"
  input: "^save/Assign_98"
  input: "^save/Assign_99"
}
node {
  name: "init"
  op: "NoOp"
  input: "^Rbn1a/Rbn1a/moving_mean/biased/Assign"
  input: "^Rbn1a/Rbn1a/moving_mean/local_step/Assign"
  input: "^Rbn1a/Rbn1a/moving_variance/biased/Assign"
  input: "^Rbn1a/Rbn1a/moving_variance/local_step/Assign"
  input: "^Rbn1a/beta/Adam/Assign"
  input: "^Rbn1a/beta/Adam_1/Assign"
  input: "^Rbn1a/beta/Assign"
  input: "^Rbn1a/gamma/Adam/Assign"
  input: "^Rbn1a/gamma/Adam_1/Assign"
  input: "^Rbn1a/gamma/Assign"
  input: "^Rbn1a/moving_mean/Assign"
  input: "^Rbn1a/moving_variance/Assign"
  input: "^Rbn1b/Rbn1b/moving_mean/biased/Assign"
  input: "^Rbn1b/Rbn1b/moving_mean/local_step/Assign"
  input: "^Rbn1b/Rbn1b/moving_variance/biased/Assign"
  input: "^Rbn1b/Rbn1b/moving_variance/local_step/Assign"
  input: "^Rbn1b/beta/Adam/Assign"
  input: "^Rbn1b/beta/Adam_1/Assign"
  input: "^Rbn1b/beta/Assign"
  input: "^Rbn1b/gamma/Adam/Assign"
  input: "^Rbn1b/gamma/Adam_1/Assign"
  input: "^Rbn1b/gamma/Assign"
  input: "^Rbn1b/moving_mean/Assign"
  input: "^Rbn1b/moving_variance/Assign"
  input: "^Rbn2a/Rbn2a/moving_mean/biased/Assign"
  input: "^Rbn2a/Rbn2a/moving_mean/local_step/Assign"
  input: "^Rbn2a/Rbn2a/moving_variance/biased/Assign"
  input: "^Rbn2a/Rbn2a/moving_variance/local_step/Assign"
  input: "^Rbn2a/beta/Adam/Assign"
  input: "^Rbn2a/beta/Adam_1/Assign"
  input: "^Rbn2a/beta/Assign"
  input: "^Rbn2a/gamma/Adam/Assign"
  input: "^Rbn2a/gamma/Adam_1/Assign"
  input: "^Rbn2a/gamma/Assign"
  input: "^Rbn2a/moving_mean/Assign"
  input: "^Rbn2a/moving_variance/Assign"
  input: "^Rbn2b/Rbn2b/moving_mean/biased/Assign"
  input: "^Rbn2b/Rbn2b/moving_mean/local_step/Assign"
  input: "^Rbn2b/Rbn2b/moving_variance/biased/Assign"
  input: "^Rbn2b/Rbn2b/moving_variance/local_step/Assign"
  input: "^Rbn2b/beta/Adam/Assign"
  input: "^Rbn2b/beta/Adam_1/Assign"
  input: "^Rbn2b/beta/Assign"
  input: "^Rbn2b/gamma/Adam/Assign"
  input: "^Rbn2b/gamma/Adam_1/Assign"
  input: "^Rbn2b/gamma/Assign"
  input: "^Rbn2b/moving_mean/Assign"
  input: "^Rbn2b/moving_variance/Assign"
  input: "^Rbn3a/Rbn3a/moving_mean/biased/Assign"
  input: "^Rbn3a/Rbn3a/moving_mean/local_step/Assign"
  input: "^Rbn3a/Rbn3a/moving_variance/biased/Assign"
  input: "^Rbn3a/Rbn3a/moving_variance/local_step/Assign"
  input: "^Rbn3a/beta/Adam/Assign"
  input: "^Rbn3a/beta/Adam_1/Assign"
  input: "^Rbn3a/beta/Assign"
  input: "^Rbn3a/gamma/Adam/Assign"
  input: "^Rbn3a/gamma/Adam_1/Assign"
  input: "^Rbn3a/gamma/Assign"
  input: "^Rbn3a/moving_mean/Assign"
  input: "^Rbn3a/moving_variance/Assign"
  input: "^Rbn3b/Rbn3b/moving_mean/biased/Assign"
  input: "^Rbn3b/Rbn3b/moving_mean/local_step/Assign"
  input: "^Rbn3b/Rbn3b/moving_variance/biased/Assign"
  input: "^Rbn3b/Rbn3b/moving_variance/local_step/Assign"
  input: "^Rbn3b/beta/Adam/Assign"
  input: "^Rbn3b/beta/Adam_1/Assign"
  input: "^Rbn3b/beta/Assign"
  input: "^Rbn3b/gamma/Adam/Assign"
  input: "^Rbn3b/gamma/Adam_1/Assign"
  input: "^Rbn3b/gamma/Assign"
  input: "^Rbn3b/moving_mean/Assign"
  input: "^Rbn3b/moving_variance/Assign"
  input: "^Rbn4a/Rbn4a/moving_mean/biased/Assign"
  input: "^Rbn4a/Rbn4a/moving_mean/local_step/Assign"
  input: "^Rbn4a/Rbn4a/moving_variance/biased/Assign"
  input: "^Rbn4a/Rbn4a/moving_variance/local_step/Assign"
  input: "^Rbn4a/beta/Adam/Assign"
  input: "^Rbn4a/beta/Adam_1/Assign"
  input: "^Rbn4a/beta/Assign"
  input: "^Rbn4a/gamma/Adam/Assign"
  input: "^Rbn4a/gamma/Adam_1/Assign"
  input: "^Rbn4a/gamma/Assign"
  input: "^Rbn4a/moving_mean/Assign"
  input: "^Rbn4a/moving_variance/Assign"
  input: "^Rbn4b/Rbn4b/moving_mean/biased/Assign"
  input: "^Rbn4b/Rbn4b/moving_mean/local_step/Assign"
  input: "^Rbn4b/Rbn4b/moving_variance/biased/Assign"
  input: "^Rbn4b/Rbn4b/moving_variance/local_step/Assign"
  input: "^Rbn4b/beta/Adam/Assign"
  input: "^Rbn4b/beta/Adam_1/Assign"
  input: "^Rbn4b/beta/Assign"
  input: "^Rbn4b/gamma/Adam/Assign"
  input: "^Rbn4b/gamma/Adam_1/Assign"
  input: "^Rbn4b/gamma/Assign"
  input: "^Rbn4b/moving_mean/Assign"
  input: "^Rbn4b/moving_variance/Assign"
  input: "^Rbn5a/Rbn5a/moving_mean/biased/Assign"
  input: "^Rbn5a/Rbn5a/moving_mean/local_step/Assign"
  input: "^Rbn5a/Rbn5a/moving_variance/biased/Assign"
  input: "^Rbn5a/Rbn5a/moving_variance/local_step/Assign"
  input: "^Rbn5a/beta/Adam/Assign"
  input: "^Rbn5a/beta/Adam_1/Assign"
  input: "^Rbn5a/beta/Assign"
  input: "^Rbn5a/gamma/Adam/Assign"
  input: "^Rbn5a/gamma/Adam_1/Assign"
  input: "^Rbn5a/gamma/Assign"
  input: "^Rbn5a/moving_mean/Assign"
  input: "^Rbn5a/moving_variance/Assign"
  input: "^Rbn5b/Rbn5b/moving_mean/biased/Assign"
  input: "^Rbn5b/Rbn5b/moving_mean/local_step/Assign"
  input: "^Rbn5b/Rbn5b/moving_variance/biased/Assign"
  input: "^Rbn5b/Rbn5b/moving_variance/local_step/Assign"
  input: "^Rbn5b/beta/Adam/Assign"
  input: "^Rbn5b/beta/Adam_1/Assign"
  input: "^Rbn5b/beta/Assign"
  input: "^Rbn5b/gamma/Adam/Assign"
  input: "^Rbn5b/gamma/Adam_1/Assign"
  input: "^Rbn5b/gamma/Assign"
  input: "^Rbn5b/moving_mean/Assign"
  input: "^Rbn5b/moving_variance/Assign"
  input: "^Rbn6a/Rbn6a/moving_mean/biased/Assign"
  input: "^Rbn6a/Rbn6a/moving_mean/local_step/Assign"
  input: "^Rbn6a/Rbn6a/moving_variance/biased/Assign"
  input: "^Rbn6a/Rbn6a/moving_variance/local_step/Assign"
  input: "^Rbn6a/beta/Adam/Assign"
  input: "^Rbn6a/beta/Adam_1/Assign"
  input: "^Rbn6a/beta/Assign"
  input: "^Rbn6a/gamma/Adam/Assign"
  input: "^Rbn6a/gamma/Adam_1/Assign"
  input: "^Rbn6a/gamma/Assign"
  input: "^Rbn6a/moving_mean/Assign"
  input: "^Rbn6a/moving_variance/Assign"
  input: "^Rbn6b/Rbn6b/moving_mean/biased/Assign"
  input: "^Rbn6b/Rbn6b/moving_mean/local_step/Assign"
  input: "^Rbn6b/Rbn6b/moving_variance/biased/Assign"
  input: "^Rbn6b/Rbn6b/moving_variance/local_step/Assign"
  input: "^Rbn6b/beta/Adam/Assign"
  input: "^Rbn6b/beta/Adam_1/Assign"
  input: "^Rbn6b/beta/Assign"
  input: "^Rbn6b/gamma/Adam/Assign"
  input: "^Rbn6b/gamma/Adam_1/Assign"
  input: "^Rbn6b/gamma/Assign"
  input: "^Rbn6b/moving_mean/Assign"
  input: "^Rbn6b/moving_variance/Assign"
  input: "^Rconv1a/W/Adam/Assign"
  input: "^Rconv1a/W/Adam_1/Assign"
  input: "^Rconv1a/W/Assign"
  input: "^Rconv1a/b/Adam/Assign"
  input: "^Rconv1a/b/Adam_1/Assign"
  input: "^Rconv1a/b/Assign"
  input: "^Rconv1b/W/Adam/Assign"
  input: "^Rconv1b/W/Adam_1/Assign"
  input: "^Rconv1b/W/Assign"
  input: "^Rconv1b/b/Adam/Assign"
  input: "^Rconv1b/b/Adam_1/Assign"
  input: "^Rconv1b/b/Assign"
  input: "^Rconv2a/W/Adam/Assign"
  input: "^Rconv2a/W/Adam_1/Assign"
  input: "^Rconv2a/W/Assign"
  input: "^Rconv2a/b/Adam/Assign"
  input: "^Rconv2a/b/Adam_1/Assign"
  input: "^Rconv2a/b/Assign"
  input: "^Rconv2b/W/Adam/Assign"
  input: "^Rconv2b/W/Adam_1/Assign"
  input: "^Rconv2b/W/Assign"
  input: "^Rconv2b/b/Adam/Assign"
  input: "^Rconv2b/b/Adam_1/Assign"
  input: "^Rconv2b/b/Assign"
  input: "^Rconv3a/W/Adam/Assign"
  input: "^Rconv3a/W/Adam_1/Assign"
  input: "^Rconv3a/W/Assign"
  input: "^Rconv3a/b/Adam/Assign"
  input: "^Rconv3a/b/Adam_1/Assign"
  input: "^Rconv3a/b/Assign"
  input: "^Rconv3b/W/Adam/Assign"
  input: "^Rconv3b/W/Adam_1/Assign"
  input: "^Rconv3b/W/Assign"
  input: "^Rconv3b/b/Adam/Assign"
  input: "^Rconv3b/b/Adam_1/Assign"
  input: "^Rconv3b/b/Assign"
  input: "^Rconv4a/W/Adam/Assign"
  input: "^Rconv4a/W/Adam_1/Assign"
  input: "^Rconv4a/W/Assign"
  input: "^Rconv4a/b/Adam/Assign"
  input: "^Rconv4a/b/Adam_1/Assign"
  input: "^Rconv4a/b/Assign"
  input: "^Rconv4b/W/Adam/Assign"
  input: "^Rconv4b/W/Adam_1/Assign"
  input: "^Rconv4b/W/Assign"
  input: "^Rconv4b/b/Adam/Assign"
  input: "^Rconv4b/b/Adam_1/Assign"
  input: "^Rconv4b/b/Assign"
  input: "^Rconv5a/W/Adam/Assign"
  input: "^Rconv5a/W/Adam_1/Assign"
  input: "^Rconv5a/W/Assign"
  input: "^Rconv5a/b/Adam/Assign"
  input: "^Rconv5a/b/Adam_1/Assign"
  input: "^Rconv5a/b/Assign"
  input: "^Rconv5b/W/Adam/Assign"
  input: "^Rconv5b/W/Adam_1/Assign"
  input: "^Rconv5b/W/Assign"
  input: "^Rconv5b/b/Adam/Assign"
  input: "^Rconv5b/b/Adam_1/Assign"
  input: "^Rconv5b/b/Assign"
  input: "^Rconv6a/W/Adam/Assign"
  input: "^Rconv6a/W/Adam_1/Assign"
  input: "^Rconv6a/W/Assign"
  input: "^Rconv6a/b/Adam/Assign"
  input: "^Rconv6a/b/Adam_1/Assign"
  input: "^Rconv6a/b/Assign"
  input: "^Rconv6b/W/Adam/Assign"
  input: "^Rconv6b/W/Adam_1/Assign"
  input: "^Rconv6b/W/Assign"
  input: "^Rconv6b/b/Adam/Assign"
  input: "^Rconv6b/b/Adam_1/Assign"
  input: "^Rconv6b/b/Assign"
  input: "^beta1_power/Assign"
  input: "^beta2_power/Assign"
  input: "^conv1/W/Adam/Assign"
  input: "^conv1/W/Adam_1/Assign"
  input: "^conv1/W/Assign"
  input: "^conv1/b/Adam/Assign"
  input: "^conv1/b/Adam_1/Assign"
  input: "^conv1/b/Assign"
  input: "^conv2/W/Adam/Assign"
  input: "^conv2/W/Adam_1/Assign"
  input: "^conv2/W/Assign"
  input: "^conv2/b/Adam/Assign"
  input: "^conv2/b/Adam_1/Assign"
  input: "^conv2/b/Assign"
  input: "^fbn1/beta/Adam/Assign"
  input: "^fbn1/beta/Adam_1/Assign"
  input: "^fbn1/beta/Assign"
  input: "^fbn1/fbn1/moving_mean/biased/Assign"
  input: "^fbn1/fbn1/moving_mean/local_step/Assign"
  input: "^fbn1/fbn1/moving_variance/biased/Assign"
  input: "^fbn1/fbn1/moving_variance/local_step/Assign"
  input: "^fbn1/gamma/Adam/Assign"
  input: "^fbn1/gamma/Adam_1/Assign"
  input: "^fbn1/gamma/Assign"
  input: "^fbn1/moving_mean/Assign"
  input: "^fbn1/moving_variance/Assign"
  input: "^fconv1/W/Adam/Assign"
  input: "^fconv1/W/Adam_1/Assign"
  input: "^fconv1/W/Assign"
  input: "^fconv1/b/Adam/Assign"
  input: "^fconv1/b/Adam_1/Assign"
  input: "^fconv1/b/Assign"
  input: "^fconv2/W/Adam/Assign"
  input: "^fconv2/W/Adam_1/Assign"
  input: "^fconv2/W/Assign"
  input: "^fconv2/b/Adam/Assign"
  input: "^fconv2/b/Adam_1/Assign"
  input: "^fconv2/b/Assign"
  input: "^filter_localexpand/Assign"
  input: "^filter_localexpand_1/Assign"
  input: "^filter_localexpand_2/Assign"
  input: "^learning_rate/Assign"
  input: "^rconv1/W/Adam/Assign"
  input: "^rconv1/W/Adam_1/Assign"
  input: "^rconv1/W/Assign"
  input: "^rconv1/b/Adam/Assign"
  input: "^rconv1/b/Adam_1/Assign"
  input: "^rconv1/b/Assign"
  input: "^rconv2/W/Adam/Assign"
  input: "^rconv2/W/Adam_1/Assign"
  input: "^rconv2/W/Assign"
  input: "^rconv2/b/Adam/Assign"
  input: "^rconv2/b/Adam_1/Assign"
  input: "^rconv2/b/Assign"
}
versions {
  producer: 440
}
